output/SL_LSTM_32_64/model.pt (torch, 203758 bytes, 10 tensors)

word_embedding.weight f4 [86, 32]
0	0x3fc2e1e9	1.5225192
1	0xbe4e9585	-0.20174225
2	0x3f340d62	0.7033292
3	0xbec1141f	-0.37710664
4	0x3fdea750	1.739481
5	0xbf884d6d	-1.0648628
6	0xbfe11836	-1.7585514
7	0xbca74603	-0.020419126
8	0xbf980c0a	-1.1878674
9	0x3f8e583e	1.1120679
10	0xbfc11499	-1.5084411
11	0xbf675ac9	-0.903729
12	0xbfb799a6	-1.4343765
13	0xbf8c855f	-1.0978202
14	0xbfad6dd7	-1.3549145
15	0x3f02b69a	0.5105988
16	0xbfbbca1d	-1.4671055
17	0x3d59ebc9	0.053203378
18	0xbf5215a8	-0.82064295
19	0x3e932460	0.2873869
20	0xbf730428	-0.94928217
21	0xbf1e1873	-0.61756057
22	0xbdebab58	-0.115072906
23	0xbf7bf354	-0.98418164
24	0x3fcf79e9	1.6209079
25	0x3f607fc9	0.87694985
26	0xbfb12a69	-1.3841068
27	0x3fc09d36	1.5047977
28	0xbe2cb449	-0.16865648
29	0xbf8db883	-1.1071934
30	0x3ea6f911	0.32611898
31	0x3ed4819c	0.41505134
32	0xbfb8e82d	-1.4445854
33	0x3ed242bb	0.41066536
34	0xbf2111fc	-0.62918067
35	0x3f00a0f7	0.5024561
36	0x400ba859	2.1821501
37	0x3f546c37	0.8297762
38	0xc02c25dd	-2.689811
39	0x4005283b	2.0805805
40	0xc015ce7f	-2.3407285
41	0x3ed08912	0.40729576
42	0xbf160481	-0.5860062
43	0xbfb02661	-1.3761712
44	0x3fcd5d9b	1.6044191
45	0x3ed4cc0c	0.41561925
46	0x3f68b428	0.90899897
47	0xbfdf70d8	-1.7456312
48	0x3e091d60	0.13390112
49	0x3e40d2ea	0.18830457
50	0xbf108eb2	-0.56467736
51	0x3e8a4f7d	0.2701377
52	0x3ed867af	0.42266604
53	0x3f0f59b5	0.5599626
54	0xc019bded	-2.4022171
55	0xbece20e0	-0.40259457
56	0x3f58b1c0	0.84646225
57	0xbf9ce655	-1.2257792
58	0xbf9ea42a	-1.2393849
59	0xbff1916f	-1.8872508
60	0x3f98b035	1.1928774
61	0xc01b15aa	-2.4231973
62	0x3f254be0	0.645689
63	0xbeacfb65	-0.3378555
64	0xc0130560	-2.297203
65	0xbfc859d9	-1.5652419
66	0x3ddf847b	0.109139405
67	0x3fb7e142	1.4365618
68	0x3f247746	0.64244497
69	0xbf2c4ef7	-0.6730799
70	0x3f811d12	1.0086997
71	0xbf8e3513	-1.1109947
72	0x3ed98edf	0.42491814
73	0xbf69ebf1	-0.91375643
74	0x3ef6700c	0.4813236
75	0x3e9df9db	0.30854687
76	0xbe4a1611	-0.1973498
77	0x3fe16536	1.7609012
78	0x3f1823de	0.5942973
79	0xc02eb46f	-2.7297628
80	0xbf95dcbb	-1.1707987
81	0xbecf3d7c	-0.40476596
82	0xbf0ac5f1	-0.54208285
83	0x3f2f8d48	0.68574953
84	0xbf5a0a66	-0.85172117
85	0xbf927218	-1.1441069
86	0x3f1aa765	0.60411674
87	0x3f2f1ef6	0.6840662
88	0x3f1b2170	0.60597897
89	0xbf89789c	-1.0739932
90	0x3f1ece39	0.6203342
91	0xbedf2f39	-0.43590716
92	0xc0061e5d	-2.0956032
93	0xbe6cc17b	-0.23120682
94	0xbffe180c	-1.9851089
95	0xbe1dd9d2	-0.15415123
96	0xbf836e5a	-1.0268052
97	0x3f8cd75e	1.1003225
98	0x3fe1acc4	1.7630849
99	0x3f13ef3b	0.5778691
100	0x3cf76cb2	0.030203197
101	0xc04ab1da	-3.1671052
102	0x3e56f0ed	0.20990343
103	0x3e17bf6f	0.1481912
104	0x3fa3e1e8	1.2803316
105	0xbd8631a5	-0.06552438
106	0xbebcda24	-0.36885178
107	0x3f85c745	1.0451437
108	0x3da11398	0.07865065
109	0x40323205	2.784303
110	0xc006346e	-2.09695
111	0xbfaafa9c	-1.335773
112	0x3f059cfb	0.5219266
113	0xbf5e718d	-0.86892015
114	0xbfa9129f	-1.3208808
115	0xbfe80c94	-1.8128839
116	0x403dc256	2.9649863
117	0xbe3d3d73	-0.18480472
118	0xbe9ba378	-0.30398154
119	0x3fa03580	1.2516327
120	0x3cecb144	0.02889312
121	0xbed4aad2	-0.41536576
122	0xbfe95b63	-1.8231014
123	0xbf5b64e4	-0.8570082
124	0x3f5da2bb	0.8657643
125	0xc0431c08	-3.048586
126	0xbfa495b9	-1.2858192
127	0x3fa4e146	1.2881248
128	0xbcee2d94	-0.029074468
129	0xbe1f3e00	-0.15550995
130	0x3e2057e7	0.15658532
131	0x4042ed5f	3.045738
132	0x3e9e978a	0.3097499
133	0x3f830097	1.0234555
134	0xbfcee55b	-1.6163744
135	0x40191614	2.3919725
136	0xbff16fd5	-1.8862253
137	0x3f915b5b	1.1356004
138	0xbd884f27	-0.06655722
139	0xbf41fe0c	-0.7577827
140	0x3f785681	0.97006994
141	0xbfc25052	-1.5180762
142	0x3f47bac7	0.78019375
143	0xbf8e8db0	-1.113699
144	0xbe03a27d	-0.12854953
145	0x3faaa368	1.3331118
146	0x3f28e0f2	0.6596824
147	0x3eabcffd	0.3355712
148	0x3f79b971	0.97548586
149	0xbedca9a4	-0.43098176
150	0xbf7acd9b	-0.9796998
151	0x402330e0	2.549858
152	0xbfc0fba6	-1.5076797
153	0xbf8adbca	-1.0848324
154	0x3fa5805c	1.2929797
155	0xbf3fc903	-0.74916095
156	0x3ed9ebda	0.42562753
157	0xbba04514	-0.0048910473
158	0xc0415f79	-3.0214522
159	0x3f5e0ed2	0.86741364
160	0x402d708e	2.7099948
161	0xbebae9d1	-0.36506513
162	0x40dad4b0	6.838463
163	0x4097b812	4.7412195
164	0x3ff69a1c	1.926578
165	0x3f86d2f2	1.0533125
166	0x3ffae7cf	1.9601992
167	0x400efd5b	2.2342136
168	0xc05fdbff	-3.4978025
169	0xc0843671	-4.1316457
170	0xc0c2d604	-6.088625
171	0xbfe4cf6d	-1.7875801
172	0x4035df63	2.8417594
173	0xc0649d8a	-3.5721154
174	0xbf576085	-0.8413165
175	0xbe84cc63	-0.25937185
176	0x406d6497	3.7092645
177	0x3f84e6ff	1.0382994
178	0x40c76e71	6.2322316
179	0xc10dea40	-8.86969
180	0x3e947298	0.28993678
181	0xc020ef7f	-2.5146177
182	0x410bab26	8.729284
183	0x3f6a9ba7	0.91643757
184	0x3fab1d43	1.3368305
185	0x3f86c463	1.0528682
186	0xbfddaf09	-1.7319041
187	0xc01bfeae	-2.4374194
188	0x3f1a668a	0.6031271
189	0xbf0de13f	-0.55421823
190	0x405835b0	3.3782768
191	0x40457037	3.084974
192	0x3f6a2975	0.9146951
193	0x3fc1ff19	1.5155975
194	0x3e80c293	0.25148448
195	0x3f97366e	1.1813486
196	0x3ec9b175	0.393932
197	0x3f908500	1.1290588
198	0x3df0ffa8	0.117675126
199	0xbf296c4e	-0.66180885
200	0x3f05ae3d	0.5221899
201	0x3fea6e9b	1.8315004
202	0x3e9e9fdd	0.3098134
203	0xbec97e80	-0.39354324
204	0x3f4755aa	0.7786509
205	0xbf761983	-0.9613268
206	0x3f269764	0.65074754
207	0x3e68c97c	0.2273311
208	0x3f826b0b	1.0188917
209	0xbfc884b1	-1.5665494
210	0xbe99a382	-0.3000756
211	0x3e9e47aa	0.3091405
212	0x3ec56029	0.38549927
213	0xbe1cf983	-0.15329556
214	0x4007b849	2.1206229
215	0x3fc308a7	1.5237015
216	0x3f873acd	1.056482
217	0x3f759c6f	0.95941824
218	0xbd4d52b8	-0.050127715
219	0xbeff7cff	-0.49900052
220	0x3e006b64	0.12540966
221	0xc028b51c	-2.636054
222	0x3e6c3338	0.23066413
223	0x40551001	3.3291018
224	0x3f6295f0	0.88510036
225	0xbf528776	-0.82237947
226	0xbf1aafac	-0.60424304
227	0xbfcab783	-1.5837253
228	0x3fb5217d	1.4150845
229	0x3f0d55ef	0.5520925
230	0x3fdb635e	1.71397
231	0xbe0fd349	-0.14045443
232	0xbff130a1	-1.8842965
233	0xbfccb204	-1.5991826
234	0xbed3a032	-0.41333157
235	0x3ee9a8ef	0.456367
236	0xbefd1926	-0.4943325
237	0x402ca3a7	2.6974885
238	0x3fc62933	1.5481323
239	0xbe11d2db	-0.14240591
240	0x3f165939	0.5872989
241	0xbfcb4267	-1.5879639
242	0x3f649919	0.8929611
243	0xbfef2251	-1.8682348
244	0xbf07aaa1	-0.52994734
245	0x3f14c7e0	0.58117485
246	0xbff71a42	-1.9304888
247	0x40255ea8	2.5839024
248	0xc0563e63	-3.3475578
249	0x3f26e64c	0.65195155
250	0xbf804b42	-1.0022967
251	0xbf86cdae	-1.0531518
252	0xbf578954	-0.8419392
253	0x3e6217e5	0.22079428
254	0x3efe5c6f	0.49679896
255	0x3fb687c3	1.4260181

lstm.weight_ih_l0 f4 [256, 32]
0	0xbe78038b	-0.24220102
1	0xbcfa0f7c	-0.030524962
2	0xbd94d5ca	-0.072673395
3	0x3e98d5ad	0.29850522
4	0xbeb13d88	-0.34617257
5	0x3e84f468	0.25967717
6	0x3e3e0fef	0.18560766
7	0x3cd67deb	0.02618309
8	0xbcbe949e	-0.023264226
9	0x3e9f4e4e	0.3111443
10	0x3d9f4faf	0.0777887
11	0xbf0756cb	-0.5286681
12	0x3ecfb689	0.4056895
13	0xbe0ad141	-0.13556387
14	0x3dae2bbd	0.08504436
15	0xbd0e53af	-0.034747776
16	0x3e111f21	0.14172031
17	0x3efe5255	0.4967219
18	0xbe887677	-0.26652882
19	0x3d5f37ac	0.054496452
20	0xbe6f1b78	-0.23350322
21	0x3d190bb9	0.037364695
22	0x3e21be00	0.15795135
23	0xbe8a6cdc	-0.27036178
24	0x3f38569e	0.7200717
25	0xbe40fe27	-0.18846951
26	0x3d9d386d	0.07676778
27	0xbe68ad58	-0.22722375
28	0x3d43d2c9	0.047808442
29	0xbf24a896	-0.6431974
30	0xbe0abb2b	-0.13547961
31	0xbb54e620	-0.0032485798
32	0x3eda676f	0.4265704
33	0xbebae755	-0.36504617
34	0xbcf67695	-0.030085841
35	0x3ea82ebd	0.32848158
36	0x3e3104f3	0.17287044
37	0x3ba578a1	0.0050497805
38	0x3e701aee	0.23447773
39	0xbd18171d	-0.037131418
40	0xbecbe052	-0.3981958
41	0xbe2a2563	-0.16615824
42	0x3d95042d	0.07276187
43	0x3e5b1937	0.21396337
44	0x3e9fd70b	0.31218752
45	0x3edc3bf4	0.4301449
46	0x3e4284a6	0.18995914
47	0xbd621161	-0.055192355
48	0xbd031df3	-0.032010984
49	0x3e998aba	0.29988652
50	0xbefeaa05	-0.4973909
51	0x3c5e7570	0.013577804
52	0x3da9e683	0.0829592
53	0x3ea62ac9	0.32454517
54	0x3d3bb3ef	0.045825895
55	0xbcecfbe2	-0.0289287
56	0x3f5eaac9	0.8697935
57	0x3e493539	0.19649209
58	0xbe1d434b	-0.15357701
59	0xbccd98d8	-0.025097296
60	0xbdce5d17	-0.10076349
61	0xbe50717f	-0.20355795
62	0xbf0ea5a9	-0.5572153
63	0x3ecbf96f	0.3983874
64	0x3d4a70cd	0.04942398
65	0x39b773d9	0.00034990793
66	0x3dc4e530	0.096140265
67	0x3d21fd67	0.039548304
68	0x3eb014b8	0.34390807
69	0x3f31b37b	0.6941449
70	0x3e4443fb	0.19166557
71	0x3e0a7e95	0.1352485
72	0xbf00b82c	-0.50281024
73	0x3e0a811d	0.13525815
74	0x3e9ab546	0.30216426
75	0xbd556448	-0.05209759
76	0xbea0a221	-0.31373695
77	0xbe48511d	-0.19562192
78	0xbc2d2e67	-0.010570145
79	0xbcde89d9	-0.02716534
80	0x3da43607	0.080181174
81	0xbb7e9641	-0.0038846883
82	0x3e8ee349	0.2790778
83	0xbef3ce96	-0.4761855
84	0xbe7694cd	-0.240802
85	0x3cafb94f	0.021450667
86	0x3eb27c2d	0.34860364
87	0xbe8e8fed	-0.27844182
88	0x3f309672	0.6897956
89	0xbf0e0736	-0.55479753
90	0xbe566655	-0.20937474
91	0xbdda676e	-0.10664259
92	0xbe1f334b	-0.1554691
93	0xbe506198	-0.20349729
94	0x3de20cb0	0.11037576
95	0x3e29fadd	0.16599603
96	0x3e185c7a	0.14879027
97	0x3e194231	0.14966656
98	0x3eea85ad	0.45805112
99	0x3df588f7	0.119890146
100	0x3ea6ca78	0.32576346
101	0x3ee5fa10	0.44917345
102	0xbed01b6d	-0.40645924
103	0x3f2fc190	0.6865473
104	0xbeac99b3	-0.33711013
105	0xbe147794	-0.1449874
106	0xbcdbe543	-0.026842719
107	0x3dd82026	0.10553007
108	0x3e8823c7	0.26589796
109	0xbd73771e	-0.05943977
110	0x3ef25545	0.4733068
111	0xbeaad3a5	-0.33364597
112	0x3e8f4979	0.27985743
113	0x3e8d9c76	0.27658433
114	0xbeeeb521	-0.46622565
115	0xbf13c9ad	-0.5772961
116	0xbed94614	-0.42436278
117	0xbe7345e0	-0.23757124
118	0xbe58a149	-0.21155275
119	0xbd7d5c19	-0.06185541
120	0x3e9fc93d	0.3120822
121	0xbcac7efc	-0.021056645
122	0xbdc6309c	-0.0967724
123	0x3ea2c46e	0.3179049
124	0x3e4cdde6	0.20006523
125	0xbe905fe1	-0.2819815
126	0xbed79585	-0.42106262
127	0xbe508509	-0.20363249
128	0xbd629e7b	-0.05532692
129	0xbdb11388	-0.086463034
130	0x3ddf832d	0.10913692
131	0x3e519e3c	0.20470518
132	0xbe8628d9	-0.2620304
133	0x3f2225e8	0.6333909
134	0x3cabca98	0.020970628
135	0x3e1abc0e	0.151108
136	0xbf4de586	-0.8042835
137	0x3d015999	0.031579588
138	0xbef8972a	-0.4855283
139	0xbeaed3e8	-0.34146047
140	0x3e821cde	0.2541265
141	0x3ed3b04a	0.41345435
142	0x3eab491b	0.33454213
143	0xbee6fd0a	-0.45114928
144	0x3c8280eb	0.015930614
145	0x3e8904f5	0.26761594
146	0x3e7211a1	0.23639537
147	0x3dd619cd	0.1045414
148	0x3d017a51	0.03161079
149	0x3eedd036	0.46447915
150	0xbf0322b7	-0.51224846
151	0x3efb8d56	0.49131268
152	0x3e92ff8c	0.28710592
153	0x3eec1fd3	0.4611803
154	0x3e2a0ef5	0.16607268
155	0xbdfab0d1	-0.12240756
156	0xbe2fd866	-0.17172393
157	0xbe4d9490	-0.20076203
158	0xbf10c982	-0.56557477
159	0x3f443712	0.7664653
160	0x3e15b10d	0.14618321
161	0xbe5b9da8	-0.2144686
162	0x3dc6af57	0.09701412
163	0x3e6a7b2b	0.22898547
164	0x3d8ea66b	0.069653355
165	0x3e858de3	0.26084813
166	0x3ceb47ae	0.028720703
167	0x3e4d4aba	0.20048037
168	0xbd90ec2d	-0.07076297
169	0x3bfd7be1	0.007735715
170	0xbee71e93	-0.45140514
171	0xbea242c6	-0.3169157
172	0xbe9bc8b9	-0.30426577
173	0x3e7e182c	0.24813908
174	0x3d811847	0.06303459
175	0xbd372be8	-0.044719607
176	0xbe4bd689	-0.19906057
177	0x3e898aac	0.2686361
178	0xbc9f1bae	-0.019422378
179	0x3e7a85b9	0.24465074
180	0x3ec872e7	0.39150164
181	0xbec86f43	-0.39147386
182	0xbba12889	-0.0049181622
183	0x3f27e451	0.6558276
184	0x3e1f7dc5	0.15575321
185	0x3e46c584	0.19411284
186	0x3e4b6734	0.19863588
187	0xbea8593d	-0.32880583
188	0xbe2d86dd	-0.16945978
189	0x3ea9943d	0.3312091
190	0xbeb3050f	-0.34964797
191	0xbde3150e	-0.11088
192	0xbe5abafd	-0.21360393
193	0x3e567d74	0.20946294
194	0x3e6cbd9a	0.23119202
195	0x3e90a6a5	0.2825214
196	0x3eaacebe	0.33360857
197	0x3e820b6a	0.25399333
198	0xbe7b3136	-0.24530491
199	0x3e376f4d	0.17913552
200	0x3e14c7b2	0.14529303
201	0xbe3e648b	-0.18593042
202	0xbe5df29f	-0.21674584
203	0xbe027e4a	-0.12743488
204	0x3e6da8f9	0.23208989
205	0x3e8008a3	0.2500659
206	0x3e75eb84	0.24015623
207	0x3e04d999	0.12973632
208	0xbe0194ec	-0.12654465
209	0x3e14ec72	0.14543322
210	0x3d66140c	0.056171462
211	0xbe81c9d7	-0.25349304
212	0x3ddbf1f2	0.10739507
213	0xbe770f61	-0.2412696
214	0xbe2f208a	-0.17102256
215	0x3f255a5d	0.6459101
216	0x3e08fa80	0.13376808
217	0xbdb3e2b5	-0.08783475
218	0xbde9b5f2	-0.114116564
219	0xbd86d01d	-0.06582663
220	0x3e42f14d	0.19037361
221	0x3db7fe37	0.089840345
222	0xbea1b100	-0.31580353
223	0xbddc4c5a	-0.107567504
224	0xbe94d5b4	-0.29069293
225	0x3e5b280e	0.21401998
226	0x3e02b58d	0.12764569
227	0x3e9b4e19	0.3033302
228	0xbe240f65	-0.16021498
229	0xbe55d9ff	-0.2088394
230	0x3f3d4ac5	0.73942214
231	0xbe115f86	-0.14196596
232	0x3ed48e64	0.41514885
233	0x3e1793b2	0.14802435
234	0x3dfbb36f	0.122900836
235	0x3d4e1881	0.050316337
236	0xbeccb976	-0.39985245
237	0x3da552d4	0.08072439
238	0xbeeb547a	-0.45962888
239	0x3eafcd55	0.34336343
240	0x3ee1f4a0	0.44131947
241	0xbda72391	-0.08161081
242	0xbe90ed4a	-0.28306037
243	0x3e1e6e33	0.15471725
244	0x3f066426	0.52496564
245	0xbcdb4e46	-0.026770722
246	0x3cf136e3	0.029445117
247	0xbe9be777	-0.3045003
248	0x3e4c1a7b	0.19931976
249	0x3ee32a2d	0.44368115
250	0xbe1e4d43	-0.1545916
251	0xbe4cfe54	-0.20018893
252	0xbd4e4d2a	-0.050366558
253	0x3de6d631	0.112713225
254	0xbee2a461	-0.44266036
255	0xbdf57728	-0.11985618

lstm.weight_hh_l0 f4 [256, 64]
0	0xbed75f7e	-0.42065042
1	0x3f0c65bf	0.5484275
2	0x3ef7722b	0.4832929
3	0xbcb5b1f6	-0.022179585
4	0x3ef2ab92	0.47396523
5	0x3e80423f	0.25050542
6	0xbe144e66	-0.14483032
7	0x3eb1b8bf	0.34711263
8	0x3f781bfb	0.96917695
9	0x3dce0682	0.10059835
10	0xbf0fae5b	-0.5612542
11	0x3e853c32	0.26022488
12	0xbe94b858	-0.29046893
13	0x3f10ec37	0.56610435
14	0xbef00413	-0.46878108
15	0xbf961f6c	-1.1728339
16	0xbf145be3	-0.5795271
17	0xbb3e9b50	-0.0029084273
18	0xbd3f96f8	-0.046774834
19	0xbf5efba0	-0.871027
20	0xbde581a0	-0.11206365
21	0xbf0f8939	-0.5606876
22	0x3efda607	0.4954073
23	0xbec10dc0	-0.37705803
24	0x3efd7981	0.49506763
25	0x3eecc726	0.46245688
26	0xbe7e7e96	-0.24852976
27	0xbf830b96	-1.0237911
28	0xbe5e5ee3	-0.21715884
29	0xbe7237a7	-0.23654042
30	0xbded5fdb	-0.115905486
31	0xbf22724b	-0.6345565
32	0xbc3acee4	-0.011401866
33	0x3de46925	0.11152867
34	0xbe98966a	-0.29802257
35	0x3ecb3b2e	0.39693588
36	0xbf04dd1c	-0.51899886
37	0x3db4df5d	0.08831666
38	0x3f5837fe	0.8446044
39	0xbf16b4a3	-0.5886938
40	0x3e3feb4d	0.18742104
41	0x3f13e29c	0.57767653
42	0xbedee74b	-0.43535838
43	0x3e6c298b	0.23062722
44	0x3eb1696a	0.34650737
45	0xbe2a2bba	-0.16618243
46	0x3cae2e59	0.021262335
47	0xbf0093b7	-0.50225395
48	0xbeccab05	-0.39974228
49	0x3f282b51	0.65691096
50	0x3f44210c	0.76612926
51	0xbf0a5259	-0.540319
52	0xbdc6dbe1	-0.09709907
53	0x3f326084	0.6967852
54	0x3fc127f3	1.5090317
55	0xbfcca3b6	-1.5987461
56	0x3f4b741c	0.79474044
57	0xbf22c0d6	-0.63575494
58	0x3ed87a45	0.42280784
59	0xbea1f511	-0.31632283
60	0xbf956840	-1.167244
61	0xbd7d52df	-0.06184661
62	0xbf4c4daf	-0.79806036
63	0x3e20ac4b	0.15690725
64	0xbe891ccd	-0.26779786
65	0x3ee53834	0.44769442
66	0x3f1628dd	0.586561
67	0xbf02a29d	-0.5102938
68	0xbe41685c	-0.18887466
69	0xbeacd998	-0.3375976
70	0xbe6fec37	-0.23429953
71	0x3e92de22	0.286851
72	0xbf3f04b0	-0.7461653
73	0x3f77ae52	0.96750367
74	0x3dff23fc	0.12458035
75	0xbe21459a	-0.15749207
76	0x3edc7f3e	0.43065828
77	0x3ea04b61	0.3130751
78	0x3e5d27e8	0.21597254
79	0x3ba4b566	0.005026507
80	0x3ee5bb13	0.4486929
81	0xbf5c61db	-0.86086816
82	0x3ebb6312	0.36599022
83	0x3e938267	0.28810427
84	0xbf197214	-0.59939694
85	0x3f131338	0.574512
86	0x3e756bce	0.23966905
87	0xbf11fcc1	-0.57026297
88	0xbeb9deaa	-0.36302692
89	0x3c9f3d97	0.019438548
90	0x3f2fc729	0.6866327
91	0xbe2f8ea8	-0.17144263
92	0xbe7fadcb	-0.2496864
93	0xbcd8b043	-0.026451236
94	0xbedd665d	-0.4324216
95	0xbf4d008a	-0.8007895
96	0xb7137b38	-8.790572e-06
97	0xbf15db97	-0.5853819
98	0xbe897d66	-0.26853484
99	0x3e03d22b	0.12873141
100	0xbeb9a2b2	-0.3625694
101	0x3e4eba98	0.20188367
102	0x3f52cc04	0.82342553
103	0xbebd111d	-0.3692712
104	0xbe8da2cb	-0.27663264
105	0x3e1a9998	0.15097654
106	0x3e12eb2c	0.14347523
107	0x3e84de10	0.2595067
108	0xbf266589	-0.6499868
109	0xbe3e929a	-0.18610612
110	0xbe8a7eca	-0.27049857
111	0xbf4b9751	-0.79527766
112	0xbf08b6c5	-0.53403884
113	0x3c59da7f	0.013296722
114	0xbf1b4ec1	-0.60667044
115	0xbed3a6d4	-0.41338217
116	0x3f3094f0	0.6897726
117	0x3e27f68b	0.16402642
118	0x3e62ffd8	0.22167909
119	0xbdb56789	-0.088576384
120	0x3e5d3c26	0.21604976
121	0x3ea604e0	0.32425594
122	0xbed30c2e	-0.4122023
123	0x3d2ea123	0.04263414
124	0x3e95be26	0.29246634
125	0x3e04506d	0.12921305
126	0x3c3c04d8	0.011475764
127	0x3f515143	0.8176462
128	0xbf027b11	-0.50969034
129	0x3e98e2b9	0.29860476
130	0xbe0b793d	-0.13620467
131	0xbda3a6bf	-0.07990789
132	0x3e85fed7	0.2617099
133	0x3f9c4f2d	1.2211663
134	0xbf673dbb	-0.9032857
135	0x3f734841	0.95032126
136	0x3dc4c6c9	0.09608228
137	0x3e2a702a	0.1664435
138	0xbf13e4b4	-0.5777085
139	0xbeb69133	-0.35657653
140	0x3eb91c30	0.36154318
141	0x3e9a3260	0.30116558
142	0x3e1621b4	0.14661294
143	0x3e81dbef	0.2536311
144	0xbc90c8e0	-0.01767391
145	0x3e967279	0.2938421
146	0xbf19a734	-0.60020757
147	0x3f970043	1.1796955
148	0x3f457b87	0.7714161
149	0xbe9a227c	-0.30104434
150	0x3e3bec0c	0.18351763
151	0xbf2db28f	-0.67850584
152	0xbd23d9f3	-0.040002774
153	0x3f6bc3d1	0.9209567
154	0x3f483b73	0.7821571
155	0x3ed1bfb4	0.4096657
156	0xbee9203d	-0.45532408
157	0xbe402e3d	-0.18767639
158	0x3f2cf601	0.6756287
159	0xbe9f0e09	-0.31065395
160	0xbe1ce9fa	-0.1532363
161	0xbdae54c9	-0.08512265
162	0x3b9b5d21	0.0047413264
163	0x3ee3c24b	0.4448417
164	0xbe95aa3e	-0.29231447
165	0x3f17ce5e	0.59299266
166	0x3e8c2f63	0.27379903
167	0xbeac09ac	-0.3360113
168	0x3ef4b34a	0.47793037
169	0x3f755636	0.9583467
170	0x3d334d4d	0.04377489
171	0xbea6cb5c	-0.32577026
172	0xbf574fbb	-0.84106034
173	0xbf5a815f	-0.85353655
174	0xbe84dde9	-0.25950554
175	0xbee70db8	-0.45127654
176	0xbe5cbbcf	-0.21556018
177	0x3ee19c3d	0.44064513
178	0x3f266a4d	0.6500595
179	0x3d11ffe8	0.03564444
180	0x3f1eb6e4	0.6199782
181	0x3f1acc6d	0.6046818
182	0x3f317ba7	0.69329304
183	0x3eacd412	0.33755547
184	0x3e8b886c	0.2725252
185	0x3cb851bf	0.022499917
186	0xbd425cb3	-0.047451686
187	0xbec05549	-0.37565067
188	0x3f0f6e83	0.56028
189	0x3eb74be5	0.3580009
190	0xbe7b1d2d	-0.24522848
191	0x3ec94911	0.39313558
192	0x3d9b960d	0.07596979
193	0x3e1c2ab1	0.1525066
194	0x3f4449cb	0.766751
195	0x3e15ff1b	0.14648096
196	0x3e4003a7	0.18751393
197	0x3ec21e9a	0.37913972
198	0xbe8e60e8	-0.2780831
199	0xbe8f582d	-0.2799696
200	0x3f302813	0.6881115
201	0xbe92a511	-0.2864156
202	0xbec38ebe	-0.3819484
203	0xbf001276	-0.5002817
204	0x3e50d875	0.20395072
205	0xbc15e684	-0.0091491975
206	0xbf235df8	-0.6381526
207	0x3f1adcbd	0.6049307
208	0xbf53c9c4	-0.82729745
209	0xbf38c965	-0.72182304
210	0xbe03d6dc	-0.12874931
211	0x3dabb304	0.08383754
212	0x3e28d88c	0.16488856
213	0x3e0f56e3	0.13997988
214	0x3f0da4e0	0.55329704
215	0xbeab8bdd	-0.33505145
216	0xbe45926a	-0.19294134
217	0x3eaa7b59	0.33297232
218	0x3e634b9f	0.22196816
219	0x3eb24a4c	0.3482231
220	0xbefda2ed	-0.49538365
221	0xbdb511e9	-0.08841307
222	0x3de52d54	0.11190286
223	0xbedd0b8e	-0.43172878
224	0x3d81bd41	0.063349254
225	0x3e39a5df	0.18129681
226	0xbe8555bf	-0.26041982
227	0x3d94bf34	0.072630316
228	0xbecd1642	-0.40056044
229	0x3f096af4	0.5367882
230	0xbcc5641f	-0.024095593
231	0xbdf68872	-0.12037744
232	0xbce0e06c	-0.027450763
233	0xbe83744c	-0.25674665
234	0xbf122553	-0.570882
235	0xbe5e6178	-0.21716869
236	0xbf1e6b08	-0.61882067
237	0xbe4591b4	-0.19293863
238	0x3d9f16a3	0.077679895
239	0xbf08d271	-0.5344611
240	0xbd38377e	-0.044974796
241	0x3e89446c	0.26810014
242	0x3f05e720	0.52305794
243	0x3ef7d7e7	0.48406908
244	0x3e137e96	0.14403757
245	0x3f31bb60	0.69426537
246	0x3ec4a1cb	0.38404688
247	0xbf5c3c97	-0.8602995
248	0x3e54ebea	0.20793119
249	0xbf2bcf1b	-0.6711289
250	0xbebacb62	-0.36483294
251	0xbf93c170	-1.1543407
252	0xbf07e586	-0.530846
253	0x3c329a5a	0.010901058
254	0xbf4a4c06	-0.7902225
255	0x3e7524d6	0.23939833

lstm.bias_ih_l0 f4 [256]
0	0x3e786ee8	0.24261057
1	0x3edc3f88	0.4301722
2	0x3e7dbc26	0.24778804
3	0x3f09de28	0.5385461
4	0x3e383bfb	0.1799163
5	0x3eef473b	0.46734032
6	0x3eb1fd64	0.34763634
7	0x3f0a237a	0.5396038
8	0x3e088023	0.1333013
9	0x3ee71342	0.4513188
10	0x3f3d6cca	0.73994124
11	0x3f41eb75	0.75749904
12	0x3ebbd32a	0.36684543
13	0x3ef4b0e4	0.47791207
14	0x3ef10528	0.47074246
15	0x3ef85c38	0.48507857
16	0xbd77a067	-0.060455706
17	0xbd93b29c	-0.072118014
18	0x3f07d47a	0.5305859
19	0x3de4d6fb	0.11173817
20	0x3e4da95f	0.20084141
21	0x3f0cb5b8	0.5496478
22	0x3ec91764	0.39275658
23	0x3e59c690	0.21267152
24	0x3ee2e298	0.44313502
25	0x3f36f741	0.7147103
26	0x3ea8756e	0.32902092
27	0x3e6f0ac8	0.23343956
28	0x3dc3b49a	0.095559314
29	0x3e72132f	0.2364013
30	0x3f198f0e	0.5998391
31	0x3f0b5ec2	0.54441464
32	0x3e7166dd	0.23574395
33	0x3e89aad2	0.26888138
34	0x3dfeb15c	0.12436172
35	0x3ee3cea2	0.44493586
36	0x3f0b9b2a	0.54533637
37	0xbde1715e	-0.11007951
38	0x3eb7223c	0.35768306
39	0x3f1be2e2	0.6089307
40	0x3f0b37dc	0.5438211
41	0x3eceb001	0.40368655
42	0x3f28c429	0.65924317
43	0x3f0c1918	0.5472579
44	0x3f264b60	0.64958763
45	0x3f09bba2	0.5380193
46	0x3efa65b5	0.4890572
47	0x3e0e6468	0.1390549
48	0x3eb1c445	0.34720054
49	0x3e8d4556	0.27591962
50	0x3e94d551	0.29068998
51	0x3eb6b01f	0.35681245
52	0x3eeddd7a	0.46458036
53	0x3f0c182d	0.5472439
54	0x3e660870	0.22464156
55	0x3ecd265e	0.40068334
56	0x3ed72c00	0.42025757
57	0x3ea4f1bc	0.3221568
58	0x3df22465	0.11823348
59	0x3ebed7c9	0.37274006
60	0x3ed5d8c4	0.41766942
61	0x3e0b3171	0.13593079
62	0x3eb8693c	0.36017787
63	0x3e54a971	0.20767762
64	0xbde29e1c	-0.11065313
65	0x3da7214f	0.0816065
66	0xbd3ab7e5	-0.04558553
67	0xbe65d5d0	-0.22444844
68	0x3d25e200	0.040498734
69	0x3ef4a299	0.47780302
70	0xbae28856	-0.0017283063
71	0x3de35d48	0.11101776
72	0x3dc507b4	0.0962061
73	0xbe5e0697	-0.21682201
74	0x3e8ffa3d	0.28120604
75	0xbdd1ea5d	-0.102497794
76	0xbe48fedc	-0.19628471
77	0xbe0021e2	-0.12512925
78	0x3e6c39d1	0.2306893
79	0x3e36946d	0.17830057
80	0x3f2252e5	0.63407737
81	0x3ebf689b	0.37384495
82	0xbd586788	-0.05283311
83	0x3e88815a	0.26661187
84	0x3e82daad	0.2555746
85	0xbe45969b	-0.19295733
86	0x3e5e9f5b	0.21740477
87	0xbd1e25cd	-0.03861027
88	0xbef28b0c	-0.4737171
89	0x3e14c010	0.14526391
90	0x3e5edc72	0.2176378
91	0xbe25da02	-0.16196445
92	0x3ecd6607	0.40116903
93	0x3e073512	0.13203838
94	0x3e6022b7	0.21888243
95	0x3d9afbde	0.07567571
96	0xbbe9297a	-0.00711554
97	0xbe48da40	-0.19614506
98	0x3ebf27aa	0.3733495
99	0xbe20d6c3	-0.15706925
100	0x3e88aeae	0.2669577
101	0x3eaeebcf	0.34164283
102	0x3e0ab4d2	0.1354554
103	0xbe8b6a0a	-0.2722934
104	0xbdc9886e	-0.09840475
105	0xbd695fbd	-0.05697607
106	0xbdd42d09	-0.10360152
107	0x3c8ccb04	0.01718665
108	0x3e126582	0.14296535
109	0x3e0d3551	0.1378987
110	0xbe759bce	-0.23985216
111	0xbb894409	-0.0041890186
112	0x3deef257	0.116673164
113	0x3e9da570	0.3079028
114	0xbd19fa1f	-0.03759205
115	0xbcef3bce	-0.029203322
116	0xbcb12df4	-0.021628357
117	0xbebdff5c	-0.37108886
118	0xbdad984d	-0.08476315
119	0x3e3855f6	0.18001541
120	0x3ebc29e6	0.36750716
121	0xbe97bea4	-0.29637635
122	0x3e9521e4	0.2912742
123	0xbd9700cd	-0.073731996
124	0xbe896821	-0.26837257
125	0x3e8d2ab5	0.27571645
126	0xbe4fb453	-0.20283632
127	0x3d94128b	0.07230099
128	0xbbf0a2f2	-0.0073436433
129	0x3e622a16	0.22086367
130	0x3c875fbc	0.016525142
131	0xbe3b7acc	-0.18308562
132	0x3d8f5358	0.069983184
133	0x3e172904	0.1476174
134	0xbdc95896	-0.098313496
135	0x3e2bc752	0.16775253
136	0x3e04db37	0.12974249
137	0x3ea22e34	0.31675875
138	0xbdb7310b	-0.08944901
139	0x3d9da298	0.07697028
140	0xbe1621fd	-0.14661403
141	0x3e36d4e4	0.17854649
142	0x3e4c085e	0.19925067
143	0x3e913624	0.2836162
144	0xbe757a4f	-0.23972438
145	0xbe975480	-0.29556656
146	0x3eb05a57	0.34443924
147	0xbc426289	-0.011864313
148	0xbe4d2a1f	-0.20035599
149	0x3c552a4c	0.013010573
150	0x3eedf6bb	0.46477303
151	0x3d116345	0.03549506
152	0xbe8806a8	-0.26567578
153	0x3ecc7afd	0.39937583
154	0x3e73546b	0.23762672
155	0xbe93ac76	-0.28842515
156	0x3d16434d	0.036685277
157	0xbe55ab64	-0.20866162
158	0xbe993f95	-0.29931322
159	0xbe22b2f0	-0.15888572
160	0xbebc63f2	-0.36795002
161	0xbebed80b	-0.37274203
162	0xbe63b2bd	-0.22236152
163	0x3e2031e3	0.1564403
164	0xbe932226	-0.2873699
165	0x3e3b1d8e	0.18272993
166	0xbb357068	-0.0027685408
167	0xbe83259b	-0.25614628
168	0xbeaa6d08	-0.3328631
169	0xbde33958	-0.11094922
170	0xbed6c637	-0.419481
171	0x3e4c6dd3	0.1996377
172	0xbeb8896e	-0.3604235
173	0xbf0f53c0	-0.5598717
174	0xbe0e5ff5	-0.13903792
175	0xbe2fa7bc	-0.1715383
176	0xbd8c05d3	-0.068370484
177	0x3e2af2e7	0.16694222
178	0x3e88cafd	0.26717368
179	0x3e02d28b	0.12775628
180	0xbd1c1ffe	-0.038116448
181	0x3cad1d71	0.021132203
182	0xbdf32612	-0.11872496
183	0xbe7e611f	-0.24841736
184	0x3f100d78	0.5627055
185	0xbe8ae74b	-0.27129588
186	0x3a9d20e6	0.0011987954
187	0xbb508c9a	-0.0031822086
188	0xbd9c2ced	-0.076257564
189	0x3e8545b1	0.26029733
190	0xbec2a6fa	-0.38018018
191	0x3dff5313	0.12467017
192	0x3f0bf990	0.5467768
193	0x3ebbcd2d	0.36679974
194	0x3eef5ac6	0.46748942
195	0x3ea83375	0.3285176
196	0x3f1067e2	0.5640851
197	0x3ee0b77e	0.43889993
198	0x3ef6c4e2	0.48197085
199	0x3f2cb1db	0.67458886
200	0x3ef40f69	0.47668007
201	0x3f2c3393	0.67266196
202	0x3f3ab35b	0.72929925
203	0x3f2a8696	0.6661161
204	0x3f423576	0.75862825
205	0x3ec33db6	0.3813302
206	0x3ed8af61	0.42321303
207	0x3d0c0219	0.034181688
208	0x3f045f8f	0.5170831
209	0x3f3700d3	0.7148563
210	0x3f0c9b2b	0.5492427
211	0x3e9e204c	0.30884016
212	0x3e5ada2c	0.21372288
213	0x3ee31675	0.4435307
214	0x3edc182e	0.42987198
215	0x3ebff16a	0.37488872
216	0x3e98e43c	0.2986163
217	0x3f222537	0.63338035
218	0x3f051dde	0.519987
219	0x3eee78f5	0.46576658
220	0xbc43fbdd	-0.011961904
221	0x3eeb5551	0.4596353
222	0x3f02c7d7	0.5108618
223	0x3f34f18d	0.7068108
224	0x3eb605ce	0.35551304
225	0x3e939f41	0.2883244
226	0x3e84c6ea	0.2593301
227	0x3f4df0cf	0.8044557
228	0x3f0503c9	0.519589
229	0x3ebe6212	0.37184197
230	0x3ebcd2af	0.3687949
231	0x3f0cfef2	0.55076516
232	0x3f0dbfd6	0.55370843
233	0x3f395129	0.72389466
234	0x3ef02438	0.46902633
235	0x3f139f8e	0.57665336
236	0x3f0c003a	0.54687846
237	0x3ee8f21a	0.4549721
238	0x3ef9a7a4	0.48760712
239	0x3f174bca	0.5910002
240	0x3ed3e20f	0.41383407
241	0x3f215713	0.6302349
242	0x3eea6de7	0.45786974
243	0x3f192c64	0.5983336
244	0x3f288ffe	0.65844715
245	0x3efbc119	0.4917076
246	0x3ecd1576	0.40055436
247	0x3e8de508	0.277138
248	0x3f2cbf49	0.6747938
249	0x3eacacae	0.33725494
250	0x3e889dff	0.2668304
251	0x3e98f32d	0.29873028
252	0x3e893724	0.2679988
253	0x3f12d853	0.57361335
254	0x3ef7c516	0.48392552
255	0x3eb3df76	0.35131425

lstm.bias_hh_l0 f4 [256]
0	0x3e27c796	0.1638473
1	0x3f0ed909	0.5579992
2	0x3edff416	0.4374091
3	0x3ef34f0e	0.4752125
4	0x3e9cc695	0.30620256
5	0x3ecc2d57	0.39878342
6	0x3e30e605	0.17275245
7	0x3efc0a89	0.49226788
8	0x3e5b5d4b	0.21422307
9	0x3f283f9f	0.6572208
10	0x3f421944	0.758198
11	0x3f3ab153	0.72926825
12	0x3ec94d39	0.3931673
13	0x3f1ef6a2	0.6209508
14	0x3eab50ef	0.33460185
15	0x3eb903a1	0.3613558
16	0xbbb15713	-0.0054119914
17	0x3cf98b42	0.030461911
18	0x3f2258c2	0.63416684
19	0x3e17de97	0.14831005
20	0x3e89cffb	0.2691649
21	0x3ee88d1d	0.4542016
22	0x3f0b73a1	0.5447331
23	0x3e5eb76a	0.21749654
24	0x3eb1b32e	0.34707016
25	0x3f3fc252	0.74905884
26	0x3e3269a6	0.17423114
27	0x3ea3db7b	0.32003388
28	0x3dbd44ba	0.09241624
29	0x3e36d964	0.17856365
30	0x3eec30b8	0.4613092
31	0x3ecd6a03	0.40119943
32	0x3e889b8e	0.2668118
33	0x3e81fe3f	0.25389287
34	0x3e419c5d	0.18907304
35	0x3f12a86f	0.5728826
36	0x3f1a9400	0.6038208
37	0xbc840c17	-0.016119046
38	0x3f06d74f	0.52672285
39	0x3ee09445	0.4386312
40	0x3f02062f	0.50790685
41	0x3e49cdb3	0.19707374
42	0x3f0dde32	0.5541717
43	0x3f15c90f	0.58509916
44	0x3f16e1d6	0.5893835
45	0x3f0192ff	0.50614923
46	0x3ed04283	0.40675744
47	0x3ea21b57	0.31661484
48	0x3ef2db85	0.47433105
49	0x3e953e27	0.2914898
50	0x3e96cd72	0.29453617
51	0x3e582f69	0.21111836
52	0x3ea1fd1a	0.31638414
53	0x3ece7f07	0.4033129
54	0x3e5b7b4a	0.2143375
55	0x3ed30ea4	0.41222107
56	0x3e98966c	0.29802263
57	0x3e9bbebe	0.30418962
58	0x3d3c37f7	0.04595181
59	0x3eb1f3c8	0.34756303
60	0x3ed1089b	0.40826878
61	0x3e5b67a9	0.21426262
62	0x3ea925be	0.33036608
63	0x3eb0e376	0.3454854
64	0xbcbc579f	-0.022991
65	0x3df4f6a4	0.119611055
66	0x3d43e883	0.047829162
67	0xbe5750dd	-0.2102694
68	0xbc03551a	-0.008015895
69	0x3ef26a84	0.4734689
70	0xbc3a0552	-0.0113538075
71	0x3def16ed	0.116742946
72	0x3dbdfa38	0.09276241
73	0xbd988e60	-0.07449031
74	0x3e92a72a	0.2864316
75	0x3d37ba69	0.04485551
76	0xbe3cf52d	-0.18452902
77	0xbdab8c5d	-0.083763815
78	0x3e27d213	0.1638873
79	0x3e2d19bd	0.1690435
80	0x3ee93142	0.45545393
81	0x3ebfe6ac	0.37480676
82	0xbcc5c9d1	-0.024144085
83	0x3e6fe013	0.23425321
84	0x3ee0d5aa	0.43913013
85	0xbe89073a	-0.26763326
86	0x3ebe03c8	0.3711226
87	0xbd5d55fb	-0.054037075
88	0xbec0ee17	-0.37681648
89	0x3c07dafa	0.008291954
90	0x3e6ba07f	0.23010443
91	0xbe4afea3	-0.19823699
92	0x3e51740a	0.20454422
93	0x3e58101e	0.21099898
94	0x3d6d121b	0.057878595
95	0x3e2c2763	0.168119
96	0xbe46f98e	-0.19431135
97	0xbe5f0f4b	-0.21783178
98	0x3ea2c354	0.3178965
99	0x3c93d6c1	0.018046739
100	0x3ec41b83	0.3830224
101	0x3e882d9f	0.26597306
102	0x3cc48f71	0.02399418
103	0xbe6f795d	-0.2338614
104	0x3d8ebe5d	0.06969903
105	0x3c0d0fac	0.0086096935
106	0xbbe59708	-0.0070065297
107	0xbdfd9e35	-0.12383691
108	0x3e2b5a0f	0.16733573
109	0x3d473d78	0.048642606
110	0xbe92fbe3	-0.287078
111	0xbde3f808	-0.111312926
112	0x3dfb1fae	0.12261902
113	0x3e66b64c	0.22530478
114	0x3dcec426	0.10096006
115	0x3d91b3db	0.07114383
116	0xbc69c988	-0.01426924
117	0xbeb6838d	-0.3564724
118	0xbdd4faba	-0.10399385
119	0x3d3345a6	0.043767594
120	0x3e437e12	0.19091061
121	0xbe3419eb	-0.17588012
122	0x3eb2c7af	0.34917971
123	0x3c20634d	0.0097893
124	0xbe99fd79	-0.30076197
125	0x3e566c59	0.20939769
126	0xbe80686f	-0.25079677
127	0x3c994b25	0.01871259
128	0xbdc9eeac	-0.09859976
129	0x3e6f0b55	0.23344167
130	0x3e264ebe	0.16240975
131	0xbe475a96	-0.1946815
132	0xbda72a85	-0.08162407
133	0x3dfc5403	0.123207115
134	0x3c6fa13e	0.0146258455
135	0x3df503d8	0.11963624
136	0x3e63b7a8	0.22238028
137	0x3e80595d	0.2506818
138	0xbe3e277e	-0.18569753
139	0x3de62094	0.112366825
140	0xbe34e978	-0.17667186
141	0x3d4f721c	0.050645933
142	0xbc559e6f	-0.013038262
143	0x3e88f4da	0.26749307
144	0xbea2ad5a	-0.31772882
145	0xbe9a55b7	-0.3014352
146	0x3e930c61	0.28720382
147	0x3dda8737	0.106703214
148	0xbe1a0905	-0.15042503
149	0x3b5308cc	0.0032201288
150	0x3ed260ba	0.41089422
151	0x3d1996b2	0.03749723
152	0xbde8931b	-0.11356183
153	0x3f117782	0.5682298
154	0x3e1770d6	0.14789137
155	0xbea3fdd0	-0.3202958
156	0xbc9dea1b	-0.01927667
157	0xbe29b7e0	-0.16574049
158	0xbe86fb09	-0.263634
159	0xbe0fdff3	-0.14050274
160	0xbf00301d	-0.50073415
161	0xbe2de9e4	-0.16983753
162	0xbdc7286a	-0.09724505
163	0xbc77877a	-0.015107984
164	0xbe828014	-0.2548834
165	0x3c23e296	0.010002753
166	0x3c0898e7	0.008337236
167	0xbe3f5c52	-0.18687561
168	0xbebbf899	-0.36713102
169	0x3dc405ee	0.095714435
170	0xbe943ca6	-0.2895252
171	0x3e943a1c	0.28950584
172	0xbe9daa45	-0.30793968
173	0xbf0bc2f1	-0.5459433
174	0xbe766a18	-0.24063909
175	0xbe374abc	-0.17899603
176	0xbd1be570	-0.038060606
177	0x3e24ccb7	0.16093718
178	0x3e385fe2	0.18005326
179	0xbcceea13	-0.0252581
180	0x3e0973b3	0.13423042
181	0x3e232f7a	0.1593608
182	0x3db19b8a	0.08672245
183	0xbe105229	-0.14093842
184	0x3ef0b8da	0.4701603
185	0xbeaa7cf3	-0.33298454
186	0xbd8d62ff	-0.06903648
187	0xbe3aee45	-0.18254955
188	0x3d6e9771	0.058249895
189	0x3e475816	0.19467196
190	0xbeb77093	-0.35828075
191	0x3db78195	0.08960263
192	0x3f0b9efe	0.5453948
193	0x3e87ec88	0.26547647
194	0x3f03d935	0.51503307
195	0x3f0403d5	0.5156835
196	0x3f287557	0.65804046
197	0x3ea7c6fc	0.32769
198	0x3ed4add4	0.4153887
199	0x3f1b23b0	0.6060133
200	0x3edd9bca	0.4328292
201	0x3f25a563	0.64705485
202	0x3f1d28e9	0.6139055
203	0x3efae503	0.49002847
204	0x3f37f818	0.71862936
205	0x3f074e3e	0.52853763
206	0x3ec0fd86	0.37693423
207	0xbbcaecac	-0.0061927643
208	0x3f0b7fb7	0.5449175
209	0x3f15e57b	0.58553284
210	0x3ecb83c8	0.3974898
211	0x3eb0136c	0.34389818
212	0x3eddc316	0.433129
213	0x3e618523	0.22023444
214	0x3f08a169	0.5337129
215	0x3ec474c9	0.3837035
216	0x3e8c6c6c	0.2742647
217	0x3f25c260	0.6474972
218	0x3ef8cd1b	0.48593983
219	0x3ece82b3	0.4033409
220	0x3cd747a0	0.02627927
221	0x3f064444	0.52447915
222	0x3f01e2fe	0.5073699
223	0x3f2022a5	0.62552863
224	0x3ec9755a	0.39347345
225	0x3e9730e3	0.29529485
226	0x3ede277a	0.43389493
227	0x3f2e8b8b	0.68181676
228	0x3f12d6a7	0.57358783
229	0x3ecf5098	0.40491176
230	0x3ea44e8b	0.32091174
231	0x3ed6016f	0.4179797
232	0x3f24a8e5	0.6432021
233	0x3f3591e5	0.7092574
234	0x3eeb3185	0.45936218
235	0x3eec5437	0.46158
236	0x3f3c11d6	0.73464715
237	0x3ef69e00	0.4816742
238	0x3f055fa4	0.5209906
239	0x3f2577d6	0.6463598
240	0x3ec71293	0.38881359
241	0x3f34501b	0.7043473
242	0x3eff069b	0.49809727
243	0x3f14e9c2	0.58169186
244	0x3f175324	0.5911124
245	0x3f06d1aa	0.5266367
246	0x3ee6709d	0.45007792
247	0x3e939ffd	0.28833
248	0x3f24f4cf	0.6443605
249	0x3e32752b	0.17427509
250	0x3ea152d8	0.31508517
251	0x3e83418c	0.25635946
252	0x3ecbe34e	0.39821857
253	0x3ec0554d	0.3756508
254	0x3f24e34d	0.64409333
255	0x3ef92eb0	0.48668432

action_head.weight f4 [86, 211]
0	0xbf3d1f7b	-0.7387616
1	0xbe458fbf	-0.19293116
2	0xbe326a1d	-0.17423292
3	0xbdcc29e0	-0.099689245
4	0xbe87a3a0	-0.26492023
5	0xbe62a25d	-0.22132249
6	0xbe4ad29e	-0.19806907
7	0xbe64f8bd	-0.22360511
8	0xbe8abd21	-0.2709742
9	0xbea4eb7a	-0.32210904
10	0xbe8b6e12	-0.27232414
11	0xbe82a158	-0.2551372
12	0xbe77986a	-0.24179235
13	0xbe80e7dc	-0.25176895
14	0xbe7bfcb7	-0.24608122
15	0xbe56e97f	-0.20987509
16	0xbe3ead35	-0.1862076
17	0xbdebf8b7	-0.11522048
18	0xbe082088	-0.1329366
19	0xbe7cded9	-0.24694385
20	0xbe05f4ac	-0.13081616
21	0xbe483409	-0.195511
22	0xbe5afbb2	-0.21385077
23	0xbe156fda	-0.14593449
24	0xbe3e9b3f	-0.18613909
25	0xbe897899	-0.2684982
26	0xbe580af9	-0.21097936
27	0xbe7611ce	-0.2403023
28	0xbe80793e	-0.250925
29	0xbe29b142	-0.16571525
30	0xbe8672f5	-0.2625958
31	0xbe7d3e44	-0.24730784
32	0xbe9a20e4	-0.3010322
33	0xbe67a782	-0.22622493
34	0xbe847daa	-0.25877124
35	0xbda26bad	-0.07930694
36	0xbe1b00c4	-0.15137011
37	0xbe4285e0	-0.18996382
38	0xbe35eb2b	-0.1776549
39	0xbe636a66	-0.22208557
40	0xbe34e427	-0.17665158
41	0xbe4b5c79	-0.19859494
42	0xbe1f3974	-0.1554926
43	0xbe83d402	-0.25747687
44	0xbdcdcf00	-0.10049248
45	0xbe84f0de	-0.25965017
46	0xbe941605	-0.2892305
47	0xbe7553d6	-0.23957762
48	0xbe74c2f2	-0.2390249
49	0x3c3ff726	0.01171664
50	0x3c29315d	0.0103267105
51	0x3d6cfd41	0.05785871
52	0xbd15b7df	-0.036552306
53	0x3d10a886	0.035316966
54	0x3d378b96	0.044810854
55	0x3d07fcf2	0.03320021
56	0x3cd1b2e7	0.025598003
57	0x3c300f08	0.010745771
58	0x3cd28f36	0.025703054
59	0x3c7f8d05	0.0155975865
60	0x3d13802d	0.03601091
61	0x3d3456cc	0.04402809
62	0xb8d8aa66	-0.00010331422
63	0xbd9d7ece	-0.07690202
64	0xbd7a7eb9	-0.06115601
65	0x3cfc9571	0.030832978
66	0x3ad468f5	0.0016205596
67	0xbd63ddf3	-0.05563159
68	0xb9fbeb6e	-0.0004804986
69	0xbceb0586	-0.028689157
70	0x3d46c03c	0.048523173
71	0xbd3cf03a	-0.046127535
72	0x3d5a7364	0.0533327
73	0x3cfb02ec	0.030641042
74	0xbd163e56	-0.036680542
75	0xbc74e37c	-0.014946815
76	0xbb027801	-0.0019907954
77	0x3d6f37c5	0.058402795
78	0xbc9c9034	-0.01911173
79	0xbcd89684	-0.026438959
80	0x3d27cd13	0.04096706
81	0xbc9aa068	-0.018875316
82	0xbc6c5bc6	-0.014426177
83	0x3c8245e7	0.015902473
84	0xbd7e0e22	-0.062025197
85	0x3d646036	0.055755816
86	0x3b6ab67c	0.0035814336
87	0xbc4cedb1	-0.012507842
88	0xbd958968	-0.07301599
89	0xbd9264e4	-0.071481496
90	0xbd96b530	-0.073587775
91	0x3cd2eabe	0.0257467
92	0x3d6ad398	0.057330698
93	0x3d532183	0.05154563
94	0x3d69b424	0.05705656
95	0xbce04b06	-0.027379524
96	0xbd779d61	-0.060452823
97	0x3d5df1da	0.054185726
98	0xbe06614e	-0.13123056
99	0xbe701eaa	-0.23449197
100	0xbe0d65bd	-0.13808341
101	0xbdc88b8e	-0.09792243
102	0xbe1b9b9c	-0.15196079
103	0xbe20f113	-0.15716963
104	0xbe2ea47c	-0.17054933
105	0xbe7ce7d6	-0.24697813
106	0xbe670f8b	-0.22564523
107	0xbe6204a6	-0.22072086
108	0xbe933b25	-0.2875606
109	0xbe9ea3ec	-0.30984437
110	0xbe707d83	-0.23485379
111	0xbe6d4909	-0.23172392
112	0xbda8f1a8	-0.08249217
113	0xbe3f0e1f	-0.1865773
114	0xbe8711e5	-0.2638084
115	0xbe254ed6	-0.16143355
116	0xbe704243	-0.23462777
117	0xbe45f7c4	-0.19332796
118	0xbe3f818b	-0.1870176
119	0xbe4bcef9	-0.19903173
120	0xbe222fcb	-0.15838544
121	0xbe66f2ec	-0.22553605
122	0xbe5c2052	-0.21496704
123	0xbe61ebed	-0.22062655
124	0xbe4a3442	-0.19746497
125	0xbe34435f	-0.17603825
126	0xbe621e45	-0.2208186
127	0xbe75bac5	-0.23997028
128	0xbe0f9e58	-0.14025247
129	0xbe0ec264	-0.13941342
130	0xbe2679ce	-0.16257402
131	0xbe752ba3	-0.23942427
132	0xbe4c91c5	-0.19977482
133	0xbe670a20	-0.22562456
134	0xbe210dd2	-0.15727928
135	0xbe676ec3	-0.22600846
136	0xbe21f148	-0.15814698
137	0xbe751006	-0.23931894
138	0xbe28e95b	-0.16495268
139	0xbe4c90fc	-0.19977182
140	0xbe2b81ea	-0.16748777
141	0xbdf505d2	-0.11964001
142	0xbe60d819	-0.21957435
143	0xbe216d89	-0.1576444
144	0xbe1b8b53	-0.15189867
145	0xbe59ab47	-0.21256743
146	0xbe9a9d71	-0.30198243
147	0x3e31819a	0.17334595
148	0xbf534285	-0.82523376
149	0xbf23d8e1	-0.64002806
150	0x3f114833	0.5675079
151	0xbe89d648	-0.26921296
152	0xbeafbe36	-0.34324807
153	0x3f2818c6	0.656628
154	0xbeda5375	-0.42641798
155	0xbe8bf56b	-0.27335677
156	0xbf4ba14a	-0.7954298
157	0x3ede71b1	0.43446115
158	0x3e66c538	0.2253617
159	0x3f1d4826	0.61438215
160	0xbed8290b	-0.42218813
161	0x3ecf6f17	0.40514442
162	0xbcc6e27b	-0.024277916
163	0x3ead3ce5	0.3383552
164	0x3f175361	0.591116
165	0xbed83269	-0.4222596
166	0xbef89e5a	-0.48558313
167	0x3ee40a4a	0.445391
168	0x3e5b789c	0.21432728
169	0xbf32189a	-0.6956879
170	0x3e9e1011	0.30871633
171	0x3f7f01be	0.99612033
172	0xbf6d2d1e	-0.9264697
173	0x3f02c34a	0.5107924
174	0x3ebecb9a	0.3726471
175	0x3eb5845d	0.35452548
176	0x3ef26fa4	0.473508
177	0x3e990f86	0.29894656
178	0x3e876281	0.2644234
179	0x3f49bd2d	0.78804284
180	0x3e5b72ed	0.2143056
181	0x3f4f3083	0.809334
182	0xbeb05442	-0.34439284
183	0x3e815334	0.2525879
184	0xbf0bd4f8	-0.5462184
185	0x3f3e97da	0.7445046
186	0x3e95bb6f	0.29244563
187	0x3f92a9f1	1.1458112
188	0xbeaef933	-0.341745
189	0x3f8a0459	1.0782577
190	0xbf4ae8a0	-0.7926121
191	0x3f3200e5	0.69532615
192	0x3f90de64	1.1317868
193	0x3d9c8054	0.07641664
194	0x3f43fb9a	0.7655579
195	0x3f105062	0.56372654
196	0xbe9a5c6a	-0.3014863
197	0xbe7a5d82	-0.24449733
198	0x3ddd3dd6	0.1080281
199	0xbf28462e	-0.65732086
200	0xbee01c03	-0.4377137
201	0xbec73d25	-0.38913837
202	0x3f2b0f1b	0.66819924
203	0xbf1b7ee2	-0.6074048
204	0x3eb625ea	0.355758
205	0xbeb23650	-0.34807062
206	0x3dca838d	0.098883726
207	0x3e4493c5	0.19196995
208	0xbe9eb497	-0.30997154
209	0x3f096f3e	0.5368537
210	0xbf4503d6	-0.7695898
211	0xbf3697ef	-0.7132558
212	0xbe7fd051	-0.2498181
213	0xbe533b85	-0.20628174
214	0xbe1da8c9	-0.15396418
215	0xbe279c2a	-0.16368166
216	0xbe860c74	-0.26181376
217	0xbe706e89	-0.23479666
218	0xbe4503c8	-0.19239724
219	0xbe82b774	-0.2553059
220	0xbe50561f	-0.20345353
221	0xbe927bb0	-0.2860999
222	0xbe9e3898	-0.30902553
223	0xbe4dc599	-0.20094909
224	0xbe962d12	-0.2933126
225	0xbe98d50f	-0.2985005
226	0xbe3a59ac	-0.1819827
227	0xbe4404e2	-0.19142488
228	0xbe627b77	-0.2211741
229	0xbe1aca56	-0.15116248
230	0xbe544874	-0.20730764
231	0xbe6f12ed	-0.23347063
232	0xbe43595f	-0.19077061
233	0xbe0bed2c	-0.13664693
234	0xbe4a5ed8	-0.19762743
235	0xbe14e6e6	-0.14541206
236	0xbe155d21	-0.14586307
237	0xbe80b4e0	-0.25137997
238	0xbde28626	-0.11060743
239	0xbe5dc8c1	-0.21658613
240	0xbe108b00	-0.14115524
241	0xbe85df58	-0.2614696
242	0xbe8bc7c3	-0.27300844
243	0xbe7c246d	-0.2462327
244	0xbe870fc4	-0.26379216
245	0xbe22f2c7	-0.15912925
246	0xbe49986b	-0.19687049
247	0xbe625133	-0.22101288
248	0xbe572281	-0.21009256
249	0xbe46ba73	-0.19407062
250	0xbe18bff3	-0.14916973
251	0xbe374217	-0.17896305
252	0xbe6d5f6d	-0.23180933
253	0xbe3ac621	-0.18239643
254	0xbe7e8fe4	-0.24859577
255	0xbe53a76a	-0.20669332

action_head.bias f4 [86]
0	0xbf208428	-0.62701654
1	0xbf2f7377	-0.6853556
2	0xc0191e7d	-2.3924859
3	0xbf392d7c	-0.7233503
4	0xbf16063b	-0.58603257
5	0xbec9b722	-0.39397532
6	0xbec77e44	-0.3896352
7	0xbe3dc4ce	-0.18532106
8	0xbec8a050	-0.3918481
9	0xbe4e021d	-0.20117994
10	0xbe05c527	-0.13063489
11	0xbe2b7b2a	-0.16746202
12	0x3eaa8e13	0.3331152
13	0xc031ab97	-2.776098
14	0xbd62e672	-0.05539555
15	0xbdeddfa7	-0.11614924
16	0x3e80c3a9	0.25149277
17	0x3ecdb9bd	0.4018077
18	0xbdb5c88f	-0.08876144
19	0xbd576904	-0.052590385
20	0xbe04ea30	-0.1297996
21	0xbe93cd98	-0.28867793
22	0xbd947bc5	-0.0725017
23	0xbe7b4f40	-0.2454195
24	0xbda53ab0	-0.080678344
25	0xbe41b51b	-0.18916743
26	0x3c6cc798	0.014451884
27	0x3dd45733	0.103681944
28	0xbd1103f8	-0.035404176
29	0x3d95ec01	0.07320405
30	0x3d86ad42	0.06576015
31	0xbe5e3e3f	-0.21703433
32	0xbfa24b2a	-1.2679188
33	0xbf85e941	-1.0461808
34	0xbe112229	-0.14173187
35	0xc010c238	-2.2618542
36	0xbe167848	-0.14694321
37	0xbf0883ed	-0.533263
38	0xbdfedbaa	-0.12444241
39	0xbef3e627	-0.4763653
40	0xbea80c90	-0.32822084
41	0x3ddac2cb	0.10681685
42	0xbef2437d	-0.47317114
43	0x3efe88fe	0.49713892
44	0xbedbae91	-0.4290662
45	0xbee57880	-0.44818497
46	0x3df043e9	0.11731703
47	0x3e7cf549	0.24702944
48	0xbf0f2eed	-0.5593098
49	0xbea069b5	-0.31330648
50	0xbd7b3e1b	-0.061338525
51	0xbdff09cb	-0.1245304
52	0x3dbe18bc	0.092820615
53	0x3dfdc04d	0.12390194
54	0x3dfe64c4	0.12421563
55	0xbdb48c77	-0.08815854
56	0xbe5c3965	-0.2150627
57	0xbe50c319	-0.20386924
58	0x3cf5552e	0.029947843
59	0xbe65127f	-0.22370337
60	0x3e41b637	0.18917166
61	0xbf390f15	-0.7228864
62	0xbe3ea2e5	-0.18616827
63	0x3ecc232d	0.39870587
64	0x3ef1fb5b	0.47262082
65	0x3e974dbd	0.29551497
66	0x3df08644	0.11744359
67	0xc0b3e5fc	-5.6218243
68	0xbedb2021	-0.4279795
69	0x3d791d2e	0.060818844
70	0xbfd4b5cb	-1.6617979
71	0xbe91335a	-0.2835949
72	0xbdacf74c	-0.08445606
73	0xbcbb781d	-0.022884423
74	0xbdbeb89b	-0.093125544
75	0xbf34ba95	-0.705972
76	0x3e870ee7	0.26378557
77	0x3ec56a09	0.3855746
78	0x3e1eac2e	0.15495369
79	0xbe393a22	-0.18088582
80	0xbe57f75e	-0.21090457
81	0xbd730459	-0.059330318
82	0x3e47ffb3	0.19531135
83	0xc08aaec9	-4.333836
84	0x3e446525	0.19179209
85	0x3e726486	0.23671159

answer_embedding.weight f4 [32, 32]
0	0xbeb5b759	-0.35491446
1	0xbfb1a87c	-1.3879542
2	0x4011408b	2.2695644
3	0xbf42b509	-0.7605749
4	0xbecd812b	-0.4013761
5	0x40452cd5	3.0808613
6	0xbf67f2b4	-0.9060471
7	0x3d7ec58b	0.06220011
8	0x3f829ed3	1.0204719
9	0xbf4ac2a6	-0.7920326
10	0x3f50d5f9	0.81576496
11	0xc00f9c2e	-2.2439075
12	0xbfceb56f	-1.6149119
13	0xc000dc8d	-2.0134614
14	0xbfcf7e4a	-1.6210415
15	0x3c257b08	0.010100134
16	0x3f9d9676	1.2311542
17	0xbf4b53b0	-0.7942457
18	0x3fc8d86b	1.5691046
19	0x3fe5c45c	1.7950549
20	0x3e4c2956	0.19937643
21	0x3fcb96d3	1.5905403
22	0x3e47e38d	0.19520397
23	0x4000e387	2.0138872
24	0xbfa5127e	-1.2896268
25	0xbdfe6608	-0.12421805
26	0x3ea1b46c	0.31582963
27	0x3da2b85d	0.07945321
28	0x3f90ada2	1.1302989
29	0xbea16221	-0.3152018
30	0x3e4e2733	0.20132141
31	0x3f77f985	0.9686511
32	0xbef26104	-0.47339642
33	0xbf98c0ab	-1.1933798
34	0x3e8820a8	0.26587415
35	0xc0013f0f	-2.0194738
36	0x3f82aae2	1.0208399
37	0xbe8651f7	-0.2623441
38	0xbf573122	-0.84059346
39	0x3fa492ca	1.2857296
40	0xbf04c7bf	-0.5186729
41	0x3f1f0201	0.6211243
42	0xbecf6f57	-0.40514633
43	0x3eda0a23	0.4258586
44	0x3f1da039	0.61572605
45	0x3f8ab520	1.0836525
46	0xbdf37303	-0.11887171
47	0xbf1cb192	-0.6120845
48	0x3f287e07	0.658173
49	0x3ffed157	1.9907635
50	0xc00015da	-2.0013337
51	0xbf67d9f8	-0.9056697
52	0x3f5b7872	0.8573066
53	0x3f33c7ad	0.70226556
54	0xbf4a8666	-0.79111326
55	0xc05311a5	-3.297952
56	0xbf58c7a5	-0.84679633
57	0xbf6871ad	-0.90798455
58	0xbf22d447	-0.6360516
59	0x3e85e023	0.26147565
60	0xbfab301e	-1.3374059
61	0x3f2a019f	0.66408724
62	0x3e8fb7aa	0.28069812
63	0xbe872fe4	-0.26403725
64	0x3dfd50ab	0.12368902
65	0xbdd622b1	-0.104558356
66	0xc0071e6a	-2.1112313
67	0x3e6b11f5	0.22956069
68	0x3f3e93c4	0.7444422
69	0x3f174477	0.59088844
70	0xbde4b2f9	-0.11166949
71	0x400ce7a8	2.2016392
72	0xbdae8e56	-0.08523242
73	0xbf3b442f	-0.73150915
74	0x3f80fd6b	1.0077337
75	0xbea7ecee	-0.3279795
76	0x3e7d50cc	0.24737853
77	0x3fdc9c4d	1.7235199
78	0x3e382a41	0.17984869
79	0xbfbc1c2d	-1.4696099
80	0xbdf92d9e	-0.12166904
81	0x3dd7dccb	0.1054016
82	0xbf67c86d	-0.905402
83	0xbe2f3558	-0.17110193
84	0xbecd9a40	-0.40156746
85	0xbf91c689	-1.1388713
86	0x3f2edccd	0.68305665
87	0xbf92986e	-1.1452768
88	0xbf947008	-1.1596689
89	0xbf2553fa	-0.64581263
90	0xbfa424da	-1.2823746
91	0xbf572393	-0.84038657
92	0xbf987d4f	-1.1913241
93	0x3f424473	0.75885695
94	0x3f02c99f	0.510889
95	0xbdf06ee1	-0.117398985
96	0xbeecd4b0	-0.46256018
97	0x3c24d8c7	0.010061449
98	0xbeddb104	-0.43299115
99	0x3f2402bd	0.6406668
100	0xbf7796d6	-0.9671453
101	0xbe3e3716	-0.18575701
102	0x3f873e81	1.056595
103	0xbf80229b	-1.0010561
104	0x3f865541	1.0494767
105	0xbf270fc3	-0.65258425
106	0x3e03ee31	0.12883832
107	0x3fa39d3e	1.2782362
108	0x3e977f2d	0.29589215
109	0x3ef36363	0.47536764
110	0x3efa1f0c	0.48851812
111	0x3d82cacb	0.06386336
112	0x3efc9066	0.49328917
113	0xbfe1b1bb	-1.7632364
114	0xbe675c97	-0.22593914
115	0x3f41c1c8	0.7568631
116	0x3f6c9a71	0.9242316
117	0xbf1749ab	-0.59096783
118	0x3e2d55f4	0.1692732
119	0xbfa9f439	-1.3277656
120	0xbf4a67b6	-0.790645
121	0xbfa79371	-1.309187
122	0xbde1301b	-0.109955035
123	0xbe7567b1	-0.23965336
124	0x3fd8f362	1.6949275
125	0x3f8535f0	1.0407085
126	0xbee8fc9f	-0.45505235
127	0xbf981d53	-1.1883949
128	0x40070df4	2.1102266
129	0xc00458f3	-2.067929
130	0xbffc21fc	-1.9697871
131	0x3f33cc6a	0.70233786
132	0x3f6cfd77	0.92574257
133	0xbd383c9f	-0.044979688
134	0x3edd042d	0.43167248
135	0x3f93065d	1.1486317
136	0x3eaf62a2	0.34254938
137	0xbf1af276	-0.60526216
138	0x3fa02bbb	1.2513345
139	0xbf8df9ba	-1.1091835
140	0xbfa4b182	-1.2866671
141	0x3f4867c8	0.7828336
142	0xbf72a920	-0.94789314
143	0x3fb60899	1.4221374
144	0x3f431c46	0.76215017
145	0xbf8c33fa	-1.0953362
146	0x3f24c7f3	0.643676
147	0xbfe5c5ec	-1.7951026
148	0xbfc58b13	-1.5433067
149	0xbef9fbcf	-0.48824927
150	0xbf35f896	-0.7108244
151	0x3e86fe0a	0.2636569
152	0x3ec61c2d	0.3869337
153	0x3db0e799	0.08637924
154	0xbefa6018	-0.4890144
155	0x4002f98e	2.0464816
156	0x3fddf1ff	1.7339476
157	0x3ea6233e	0.32448763
158	0xbfc05a56	-1.5027568
159	0xbf385be6	-0.72015226
160	0x3fea669f	1.8312567
161	0x3f0a2b5b	0.53972405
162	0xbf1db6db	-0.6160714
163	0x3d8520f6	0.065004274
164	0x3dd1d37a	0.10245414
165	0xbfbaf5af	-1.4606227
166	0xbfe8d5c7	-1.819024
167	0x3dc234a0	0.09482694
168	0xbde0228d	-0.1094409
169	0x3f1ac5e4	0.6045821
170	0xbe6c9ea1	-0.23107387
171	0xbf9d21cb	-1.2275938
172	0x3ffc65c6	1.9718559
173	0xbff650e1	-1.9243432
174	0xbf685853	-0.9075977
175	0xbe8053ff	-0.25064084
176	0xbda4a36f	-0.08038985
177	0xbf43fed1	-0.76560694
178	0x3edbc2ef	0.4292216
179	0xc0080016	-2.1250052
180	0x3e0f2110	0.13977456
181	0xbf145405	-0.57940704
182	0x3f806448	1.0030603
183	0xbea58eaf	-0.3233542
184	0x3f09336f	0.53594106
185	0x3e2ffe2a	0.171868
186	0x3f975161	1.182171
187	0xbf813216	-1.009341
188	0x3faacfd9	1.334468
189	0xbf767d3c	-0.9628484
190	0xbeff4599	-0.49857786
191	0xc01bc48a	-2.4338708
192	0xbf218cca	-0.6310545
193	0xbf525523	-0.8216116
194	0x3f2b6e3a	0.6696507
195	0x3f564c8e	0.83710563
196	0x3e9200ed	0.2851633
197	0xbe13b45f	-0.14424275
198	0xbf8d6df0	-1.1049175
199	0x3e643987	0.2228757
200	0xbf862f18	-1.0483122
201	0x3f534ddc	0.8254068
202	0x3eab96a9	0.33513382
203	0x3e5f1cb1	0.21788289
204	0xbf19eb0c	-0.6012428
205	0x3d40af7b	0.04704235
206	0x3f32b30e	0.69804466
207	0x3f449610	0.7679148
208	0xbf4c7b21	-0.7987538
209	0xbdeea8ad	-0.11653266
210	0xbf564fba	-0.83715403
211	0xbec5a09e	-0.38599104
212	0xbf8bfa5e	-1.0935781
213	0xbfc1cb69	-1.5140201
214	0x3d539e16	0.051664434
215	0xbf31e619	-0.69491726
216	0x3dfc026a	0.12305148
217	0xbd771731	-0.06032485
218	0x3ebd76c9	0.37004688
219	0x3cc0fa8f	0.023556976
220	0xbf293e2c	-0.6611049
221	0xbee48422	-0.4463206
222	0xbf144415	-0.57916385
223	0xbe628928	-0.22122633
224	0x3d2d664b	0.042333882
225	0xbe875486	-0.26431674
226	0xbff62dd0	-1.9232731
227	0xbedbbfe2	-0.42919832
228	0xbf6ec992	-0.9327632
229	0xbfd288b6	-1.6447971
230	0xbfc3992a	-1.5281117
231	0x3ef00af8	0.46883368
232	0x3faced46	1.350991
233	0x3d927407	0.07151037
234	0x3f0c4f23	0.54808253
235	0x3f19dc28	0.60101557
236	0xbf1512ae	-0.5823163
237	0xbf15318f	-0.58278745
238	0xbfa26e74	-1.2689958
239	0xbe40d4d4	-0.18831187
240	0x3dc7f486	0.09763436
241	0x3f3dcc4b	0.7413985
242	0xbf892db8	-1.0717077
243	0x3ee32545	0.44364372
244	0x3feefc58	1.8670759
245	0x3e192fdc	0.14959663
246	0xbe77c46f	-0.24196027
247	0xbdd22149	-0.10260255
248	0xbfa9cc64	-1.32655
249	0x3f8518a2	1.0398142
250	0xbfbdcb32	-1.4827635
251	0xbf1ccef4	-0.61253285
252	0x401c12a3	2.4386375
253	0xbe00d2ce	-0.12580416
254	0xbe769664	-0.24080807
255	0xbe5675fe	-0.20943448
