output/SL_LSTM_32_64_vqa/model.pt (torch_old, 213344 bytes, 10 tensors)

word_embedding.weight f4 [86, 32]
00000000: 9bda 123f 0ece 48bf f0d7 6c3f 6ec4 51be
00000010: dc2d b73d bfe3 6ac0 30cd 05bf a8c9 bb3e
00000020: 5f41 adbe 393c 3a3f e8db 8abe eff3 a23e
00000030: 52e7 cabf a7b1 e4bd 1662 f6be 220e dc3f
00000040: 244d a53f f12f 27bf ee19 e03f 3bad 0c3f
00000050: 7921 823f afe4 34bd ea83 cbbe 1756 5e3f
00000060: 0fda 00c0 b745 853f c648 5a3d fbfe ce3e
00000070: f0f6 3d3f 7912 c8bf a88b 8dbf bab2 c83f
00000080: 2279 d3be cb98 8a3f 0d91 95bf 9a0d 523f
00000090: eced 3dc0 afc0 62bf 944f b6bf 55d1 573e
000000a0: 2c99 d3bf 3dab 96bf 258c ce3f 1f44 ef3f
000000b0: cad3 11bd 5fdc 30c0 4c35 b1bd 04d8 2cbf
000000c0: 76a1 0240 7845 a83f aa94 5b3f 14e5 5c3f
000000d0: ef63 b13e b06b 9fbe 4cec 99bf ae84 5ebf
000000e0: b28c 853e 6581 663e 665f f33f c523 01bf
000000f0: b4b4 82bf 1353 533f 4dd1 fe3e 07c0 9f3f
00000100: 8442 2f3f 1083 babf c47b d03e 8dbc 5fbe
00000110: b383 ba3e 227b c93e 2b00 42be 4897 1abe
00000120: c9e4 033e 1922 303f 8817 763f d5af 583e
00000130: 7f4a 843d ddfa 03bf 1e1d b1bd 28e2 babf
00000140: 147b 51be b9bc 243f 34d2 c53f d6bb 733e
00000150: 5224 23bb 0b4d 2abf 53d5 b53e 7564 c33f
00000160: 20e9 d03d ed2e 823e 9512 8bbe 57ec 1b3f
00000170: 3254 0d40 db9b a43d b93f 933f 2a12 babe
00000180: ed2b 93bd e248 41be 324c 6bbf 82ae 2dc0
00000190: 9142 efbf 0d9e 33c0 2a1d 87bf 4132 19bf
000001a0: f660 5340 509e 0040 5829 87bf 9445 393f
000001b0: 6e11 cd3f 9693 9abf 4af9 2e3f bae2 4ebf
000001c0: f69b 2f40 b628 0440 58f8 bb3f 00c9 b5bf
000001d0: 4dee b0bf 4edd d03f b5d5 44bf 3d9e 0cbf
000001e0: 2926 763f e599 eebd 5bbe 8d3f c649 833f
000001f0: 8106 2bc0 eb29 4dc0 0242 b33e 5af4 393f
00000200: f62d 5dbf 2f41 ec3f dc9e 8e3f d125 9dbf
00000210: 8909 263f 88cd 813f 5ed8 23c0 9d8b 423f
00000220: 5b14 4ebf d9c3 fbbf 9d96 563f 4a88 3fbe
00000230: ff36 813f 5424 653f 7137 3abf b272 8ebf
00000240: 00ac 9e3f f6c7 e23e 592b 9bbf 6b61 b13f
00000250: 6edb c23e b8d9 bf3e 7214 c3be 07ef 8e3e
00000260: 64b5 8abf e056 923e a81b eb3f c0de 9bbf
00000270: c1d2 523f a313 f6bf 4220 ae3f d8df 0a3e
00000280: f9d5 bec0 5edc c840 6425 13c0 829b 8e40
00000290: 843a 3240 cc33 ba3f 30d4 28c1 2475 29c0
000002a0: 3809 b1c0 3808 9c40 99f9 9040 62b9 97c0
000002b0: 4882 a040 1b91 bc3f af86 c1bf 019d 3a40
000002c0: 54cf 8cc0 cc63 5440 b875 3c40 d7c1 0640
000002d0: 2e30 703f 2e88 f240 8404 72bf c268 0bc1
000002e0: edf1 7ac0 b10d e73d b3e4 3a40 0ea0 e43e
000002f0: 8e30 db40 3953 8b40 ee61 9340 2b2f a6c0
00000300: b974 1ebe cbd4 cbbd e641 17c0 fafb 303f
00000310: 3266 d73d f4c1 c2be 78d1 8bbf 8e44 b4bf
00000320: 7763 9fbe df54 f3be 0ef4 89bf 09eb a1bf
00000330: a832 dbbe a352 9a3f 92a0 f8be 2a17 ecbe
00000340: ba07 50be 1b57 063f 6f26 f13f 9b06 893f
00000350: bd9a 5dbe 6dbe 28bf 1245 f33e e238 533e
00000360: 0e71 ab3e 4b2d d13f f444 70bf f4b8 873f
00000370: 605c 723f 435f 8a3e 4eea eebe 341b 53c0
00000380: e340 02c0 81cb 103f 525c e93e 0692 80bf
00000390: 607d a33f 3c81 6e3f 83d9 d43f b152 d83f
000003a0: 26e8 ffbf 3b6f 023f 3f53 003f bbab 2140
000003b0: a0ba cb3e cf84 eb3f 435e 613f 17e9 bebf
000003c0: 30ad 98bf 8102 293f ec09 343f a0f5 653f
000003d0: 00b3 c4bf 8fd8 e03f 5fda 2dc0 fcf6 b4bf
000003e0: 5285 cebf 3ff1 0ebf 6841 3ac0 4fc7 02c0
000003f0: d079 f43d e45d 5cbf 8a8f d03f 37cc 1f40
0.57364815 -0.78439415 0.92516994 -0.20485088 0.08944294 -3.6701505 -0.52266216 0.3667729
-0.33838937 0.7274814 -0.271209 0.31826732 -1.5851843 -0.11166697 -0.4812171 1.7191813
1.2914166 -0.6530753 1.7507913 0.5495183 1.0166465 -0.044163402 -0.3974908 0.8685011
-2.0133092 1.04119 0.05329206 0.4042891 0.7420492 -1.5630637 -1.1058245 1.5679543
-0.41303355 1.0827879 -1.1684891 0.82052004 -2.9676466 -0.8857526 -1.4243035 0.21075948
-1.6531119 -1.1771008 1.6136519 1.8692664 -0.03560237 -2.7634504 -0.08652744 -0.67517114
2.0411048 1.31462 0.8577372 0.86287045 0.34646556 -0.31136847 -1.2025237 -0.86921203
0.26083905 0.22510298 1.9013488 -0.50445205 -1.0211396 0.82548636 0.4976906 1.2480477
0.6846087 -1.4571247 0.40719426 -0.2184927 0.36428604 0.39351755 -0.18945377 -0.15096772
0.12880243 0.6880203 0.96129656 0.21160825 0.064595215 -0.5155466 -0.08648132 -1.4600267
-0.20457107 0.6435047 1.5454774 0.23802122 -0.0024893475 -0.6652381 0.35514316 1.5265032
0.10200715 0.25426427 -0.27162614 0.609075 2.2082639 0.080375396 1.1503822 -0.36341983
-0.071861126 -0.18875459 -0.9191314 -2.713776 -1.869219 -2.8065217 -1.0555775 -0.59842306
3.302793 2.0096626 -1.0559492 0.7237179 1.6020944 -1.207629 0.68349135 -0.8081471
2.743894 2.0649848 1.4685163 -1.4201965 -1.3822724 1.6317537 -0.7688859 -0.5492895
0.9615198 -0.11650447 1.1073717 1.0256889 -2.672272 -3.2056835 0.35011297 0.72638476
-0.86398256 1.8457392 1.114223 -1.2277166 0.648583 1.0140848 -2.560081 0.7599428
-0.8049981 -1.9669143 0.8382357 -0.18704334 1.0094908 0.8950856 -0.72740847 -1.1128752
1.239624 0.44293183 -1.2122604 1.3857855 0.38058037 0.37470794 -0.38101536 0.27916738
-1.0836606 0.28581905 1.8367815 -1.2177353 0.82352835 -1.9224743 1.3603594 0.13561952
-5.9636197 6.2769003 -2.2991571 4.456483 2.7848215 1.4547057 -10.551804 -2.6477747
-5.5323753 4.8760033 4.5304685 -4.7413797 5.0159035 1.4731783 -1.5119227 2.9158328
-4.4003086 3.318591 2.944685 2.105581 0.93823516 7.5791235 -0.9453814 -8.713076
-3.921016 0.11281908 2.9202087 0.44653362 6.849677 4.353909 4.6057043 -5.193258
-0.15474214 -0.099526964 -2.3633971 0.69134486 0.10517539 -0.380386 -1.09233 -1.4083421
-0.31130573 -0.4752569 -1.0777605 -1.2649852 -0.42812085 1.2056469 -0.48560005 -0.46111423
-0.20315447 0.5247666 1.8839854 1.0705141 -0.21641059 -0.65915567 0.47513634 0.20627168
0.3348469 1.6341947 -0.93855214 1.0603318 0.94672203 0.27025804 -0.46663135 -3.2985353
-2.0352104 0.5656052 0.45578247 -1.0044563 1.2772636 0.93165946 1.6628879 1.6900235
-1.9992721 0.50950974 0.50127023 2.5261066 0.3979082 1.8399905 0.88034457 -1.4914883
-1.1927853 0.66019446 0.7032764 0.8982792 -1.5367126 1.7566088 -2.7164533 -1.4137874
-1.6134436 -0.5583686 -2.910242 -2.0434148 0.119372964 -0.86080766 1.6293805 2.4968393

lstm.weight_ih_l0 f4 [256, 32]
00000000: cf51 bbbe 663e 6a3e d029 96bd 26ff 8f3e
00000010: 0e12 513e 27a8 84be aa0d a93e 0850 163e
00000020: 349a 89be 9a0b a1be 5264 b3be 4a91 543e
00000030: 3753 d8be 2c6c 04bf 2630 afbe 8c4c b63e
00000040: 65ef 4bbe 77a8 ff3e 545f 6f3f 812a ab3d
00000050: 8391 5f3c ce18 91bd 58e3 f93d 9db3 85be
00000060: d175 8bbd 5929 15be 3da2 c13e 1dc3 453e
00000070: 8b98 82be 7c93 993e a04c 4bbe 34f7 823e
00000080: 87c7 0b3e 44aa 91bd 5c4f 0c3f 57fd 393e
00000090: 2db7 85be c82b 00be 8783 6a3c 1f91 01be
000000a0: 7a81 3ebf cd79 af3d f253 1fbe 7512 563e
000000b0: 7423 25bd 17fe 723d 63d9 abbd 58f8 4f3d
000000c0: 8c6e 973e 06b4 58be 624d f83e bf74 473e
000000d0: 9920 e93c 3ea8 debe 415d 183e 3a35 c63e
000000e0: 1e00 b9bd eb33 c23d 48d4 64be 261b 30be
000000f0: 5e0d 9cbe a408 d73c 2d75 97be 7e47 4ebe
00000100: a37c 14be dba0 67be ebea 1ebf a02c c53e
00000110: 51a9 afbe ef1b c03e 2759 30bc b2ac e7bd
00000120: 09ec 95be 6973 223e 3b94 dc3e 7414 cdbe
00000130: 8e2b c3be f0c7 cbbe c442 443d 5e44 cabd
00000140: 34c0 37bd 665d e33d 6b0d a43e b0a9 a4be
00000150: d043 b43d 1088 30be bb26 293f 4f9c 06bf
00000160: 6771 343f ddda 9c3e 9727 96bd 4f92 e43e
00000170: b6fb 72be 2786 2dbe 1514 1c3f f362 a93e
00000180: ff63 09bd 4a9b 1d3e 66b2 693e 6aff 003c
00000190: 00a6 193c 62c6 ccbe b328 16bf dcb9 c4be
000001a0: a20e e3be 13c1 cdbe b96a fabd 7f2b 6b3d
000001b0: d8f4 e73e 5067 85be 74d9 9b3c 96d3 a7be
000001c0: 1d43 8cbe 4959 4c3d 6f9b 123f 10e1 0f3e
000001d0: 04d1 d63d cd10 f6be ed4c 18be 0dcc 5c3e
000001e0: fbd6 83bd ddcd d93e 4a12 103e 581a 3f3e
000001f0: 398c cdbe 18cf 843e 7ac3 813e 63d7 5bbe
00000200: 6e28 f13d 89fc 87be a1ca cebe cd98 b83e
00000210: c058 153f cf8a 72bf c2ef 5abe fe59 253e
00000220: bb5d 8fbe 3aa3 9ebe 1d31 b43d 69cc f8bc
00000230: 0370 4d3e 2e87 a33d 87b5 08bf 358a 5cbe
00000240: 35ea 09be a881 a3bc f98b 813c 6eee 57be
00000250: 3c24 00bf 8273 36bf 22f9 333c 4293 87bd
00000260: 5f8d eb3e 40de f1be a15e d93e f2df 873e
00000270: 1350 663e 1f4c 613e 22c1 223f e6fc a53e
00000280: 6adb b83e 3e7a 823e d43b b3be 54f2 813c
00000290: a355 8f3e c609 323e f579 d5bd 8926 87be
000002a0: 83fb 28bf 0733 9cbd 61a3 fdbe fb16 553e
000002b0: 6fb7 84be 1f7f 96be 417f 65bf a414 c63d
000002c0: 7460 8a3e ec1b 313e e9de ca3e 14d3 123f
000002d0: c0e2 62bd 4dc7 e6be 5d9e e03e 3729 b6be
000002e0: d6ee 9cbe 15fb 213e 880b 2f3e 197c cf3e
000002f0: fd84 75be 81d9 a5bc 21a6 253d 11e3 9ebe
00000300: 1aad 40be 7169 783e cbdb a63e ca4c cdbd
00000310: 53be cc3e 9ae5 9fbd 323f 8ebd be45 b03e
00000320: 5140 1a3d 9802 79be 6a30 c93e 7768 9e3c
00000330: fbe6 7f3e 3b14 a4bd 209a 65be 82d9 8b3e
00000340: ce48 883e 42f5 3a3f 27a4 49bd c5fd 0c3f
00000350: 3a77 cbbe d0b0 d03e b992 d9be 30fa e33c
00000360: 7c3f 603d 45b0 623e cde8 f93e f4b3 d33e
00000370: b40d 99bc 7fd0 90bc 94dd b13e b250 983e
00000380: 1c0c c2be 2f52 5fbe 573f f5be 4541 2fbf
00000390: 0cc8 df3e 2028 0d3f 14de 7ebe 063b 763c
000003a0: f36b ecbe 11a6 3f3d 84a9 a73d 3c63 06be
000003b0: 0415 a4be 0018 2e3e e23a 193e fb7e 85bd
000003c0: 9f3e 67be a7f7 2ebd ddf8 1fbd 74b4 79be
000003d0: 55e5 c93e 5553 b33e 39ef aa3d 55eb b73e
000003e0: 0a37 a13e c2fa 6c3d 8596 0bbf 7c83 58bd
000003f0: d3f6 91bd 897a 07be 3c8b dbbe 240a ab3e
-0.36585853 0.22875366 -0.07332194 0.2812435 0.20417044 -0.2590954 0.33018237 0.14678967
-0.2687546 -0.31454164 -0.35037476 0.20758548 -0.42250988 -0.5172756 -0.34216422 0.35605276
-0.1991554 0.49933216 0.93504834 0.08357716 0.013645533 -0.07084809 0.122015655 -0.26113597
-0.06809581 -0.14566554 0.3781909 0.19312711 -0.25507006 0.29995334 -0.19853449 0.25579226
0.13650332 -0.07112554 0.5480859 0.18163048 -0.26116315 -0.12516701 0.014313585 -0.12653016
-0.74416316 0.085681535 -0.15559366 0.20905478 -0.040317014 0.05932435 -0.083910726 0.05077395
0.29576528 -0.21162423 0.48496538 0.19478129 0.028457927 -0.43487734 0.14879324 0.38712484
-0.090332255 0.09482559 -0.22346604 -0.17197856 -0.30478948 0.026249237 -0.29581586 -0.2014446
-0.1450067 -0.22619955 -0.62077206 0.3851061 -0.34308866 0.37521312 -0.010763443 -0.11312236
-0.29281643 0.15864338 0.4308184 -0.40054667 -0.38119167 -0.39800978 0.047915235 -0.09876321
-0.044861034 0.11101799 0.32041487 -0.3216071 0.08801997 -0.17239404 0.66074723 -0.5258226
0.7048554 0.3063573 -0.0733177 0.44642875 -0.23728833 -0.16945706 0.6096814 0.33083305
-0.03354263 0.1539127 0.2282196 0.007873395 0.009377956 -0.39995104 -0.5865585 -0.3842305
-0.443471 -0.40186366 -0.12227387 0.057414528 0.45303988 -0.26055384 0.019024588 -0.32778615
-0.27394953 0.049889836 0.5726842 0.14050698 0.10489085 -0.48059693 -0.14873095 0.21562214
-0.06437489 0.42539874 0.14069477 0.18662393 -0.40146044 0.2593925 0.2534445 -0.21468882
0.117752895 -0.26559857 -0.4038897 0.36054078 0.58338547 -0.94743055 -0.21380523 0.1614761
-0.28001198 -0.30983907 0.0879843 -0.030370908 0.2006226 0.07984768 -0.5340199 -0.21537097
-0.13468249 -0.019959286 0.015813814 -0.21087047 -0.5005529 -0.7127 0.010984691 -0.06619884
0.46006295 -0.47239876 0.4245501 0.26538044 0.22491483 0.22001694 0.6357595 0.3241951
0.361049 0.25483888 -0.35006583 0.015862621 0.27995023 0.17386541 -0.10423652 -0.26396587
-0.66008776 -0.0762692 -0.4953871 0.20809548 -0.259212 -0.2939386 -0.896473 0.09671906
0.27026713 0.17295808 0.39623192 0.5735333 -0.055392027 -0.4507393 0.43870822 -0.3557832
-0.30650967 0.15818436 0.17094243 0.40524366 -0.23976512 -0.020245316 0.040441636 -0.31032613
-0.18816033 0.24258973 0.32589564 -0.10024412 0.39988956 -0.07807465 -0.06945647 0.3442821
0.037658993 -0.24317396 0.3929475 0.019336922 0.24990456 -0.08011671 -0.22422075 0.27314383
0.26618046 0.73030484 -0.049228813 0.5507472 -0.397394 0.40759897 -0.42494753 0.02782926
0.054748043 0.22137554 0.48810425 0.4134823 -0.018683292 -0.017677544 0.34739363 0.29749066
-0.37899864 -0.21808694 -0.47899887 -0.6845897 0.4370731 0.5513935 -0.24889404 0.015028721
-0.4617611 0.046789233 0.081866294 -0.13123792 -0.32047284 0.17001343 0.14963868 -0.0651836
-0.22582482 -0.04271665 -0.039055694 -0.24385244 0.3943278 0.35024515 0.08346409 0.35921732
0.31487304 0.05785633 -0.5452655 -0.05285977 -0.07127156 -0.13230337 -0.42879665 0.33406174

lstm.weight_hh_l0 f4 [256, 64]
00000000: 5c86 c73e e79c 8ebe 2fac d0be 1cd4 473e
00000010: d929 883e b3a2 0f3f 4885 02bf 4ea5 163e
00000020: 2bb7 16bf 111a a03e 57bc a4be 6db4 813e
00000030: 2fb5 213f cc15 e0bd e060 80be a873 28be
00000040: df9b e03e 3cd7 92bc 1acb 66bf 9150 8ebf
00000050: e13a a3be f248 2dbe d080 0c3f 88ef 0ebf
00000060: e805 513f 816c 123f 83d1 7bbe 4d8e 513e
00000070: d5cb 6ebe a29c 563d 15c2 043f c6b4 17bf
00000080: ca8c 5b3f d9a6 693f f38d 91bd 9d0d c83e
00000090: fd49 9d3d bed5 f33c cb7f 1f3f c16f fd3e
000000a0: 8837 1e3f b474 0ebe 6418 263f 5d29 433f
000000b0: f69d 223e d353 72be 30bf 61be 0e84 d73d
000000c0: d656 993e 60d8 0b3f a347 503e 519e d6be
000000d0: 7164 b0be 9d35 d53e 6d19 bc3e dbda a3be
000000e0: 7fcc c6bd 76d7 84bd f655 54be cf97 1f3f
000000f0: 2749 7abe 13df a73d 552d de3e fc06 febe
00000100: cef7 8b3e cfa9 01be 7f2d 28be 4551 a03e
00000110: 5045 823e 87c6 e63e 0888 40bf a13d ca3e
00000120: 4bb5 c9be 95ea bbbc 721f 9f3e 989d 1c3d
00000130: af76 843d 0d51 283d 1da4 68bf f0c0 c73e
00000140: 7de3 9f3d 5437 053f 3b10 933d 14ee f03e
00000150: 4cd4 0c3f 3c61 dbbe 137c df3d e01d 0abe
00000160: e415 2dbd a54e 04bf 1b21 dabe d63b 95be
00000170: 97c5 0ebf 0367 efbe 5d9e f03e 8691 e03e
00000180: 04f7 aebc 52ca 893e 00df cd3d 1acc 2c3f
00000190: 3102 2d3f d55d d3be edb6 1c3f b46b 9cbe
000001a0: 8757 d23d 5d58 eb3e d8f5 213f a8a2 1d3d
000001b0: c5d2 40be 86d3 e83e 906a 7b3e 536e d8bd
000001c0: ea6a 2ebd 62e8 51be 6853 eabe 4ad5 a23d
000001d0: 68ec 89be 595a 0cbf df97 f83e 21bf 04be
000001e0: e3e8 e7be 088d cabe 5f52 8e3e 73e5 6abe
000001f0: 267f 093f c5cf b83d c49a 3dbd 8800 b53e
00000200: 58f9 9cbf 6d0e 6ebf 7e66 40bd ec0f 203e
00000210: b85a a23e 44f2 123e fae7 34bf 5a37 7c3d
00000220: d7db 42bf 2548 6aba b15b 233f 70cf a93e
00000230: b01e 083f f2a0 8abe ff99 77bf 0688 23bf
00000240: 131d 97bf f87a 9f3e d84b 0fbf 0e77 f73d
00000250: 52c8 75bf 849d f9be 9fd6 ca3e 3188 073c
00000260: 87ec 093f 719e 0cbe 3681 d9bd 3d77 3f3e
00000270: c4a2 7abf 557c 903c ab30 823e 9476 10be
00000280: 1648 493f 35fd 4d3f 09c5 3ebf ad7a 73bd
00000290: ed18 a4be 1e23 ce3e d59c 293e c507 b83d
000002a0: d397 033f be20 e5be af70 1c3f 730e 1dbe
000002b0: f864 fbbe 3288 debe b9d2 c1be 1512 253f
000002c0: de9e 4dbe 63d2 353f f2ae 553f a2e6 94bd
000002d0: 9ac0 2bbf ed06 85bc beed a53d 6acd 61bf
000002e0: 5f47 243e 3d8f 8abe a2c7 e73d fd93 75bd
000002f0: 326e 58bf d373 893f 14e9 893e 7418 833d
00000300: 0c8c 01bf 73d2 0cbf 02a5 7f3e dd17 043f
00000310: 12eb 1b3e 3fb5 7bbd 83d4 773f 1be3 4c3f
00000320: 48ba edbd 75b3 f5bb 5b13 e43e 1286 363e
00000330: 9a51 193f 8ed5 d3bd fc7e cf3d e0e4 0ebf
00000340: 66fb 563e 5ef3 e83d 905a a7be fa70 d1be
00000350: 2fb4 69be 2483 4ebf 0098 093e 5b30 7abd
00000360: 70a2 493f cc54 7a3d 512d edbd efe3 013e
00000370: 6fc1 bfbe eb95 913e 6542 1c3e 0893 863f
00000380: a389 5c3f 85d6 d23e 2627 b6be 6638 aa3d
00000390: 3e8a 273f 57b3 b33e e147 073e 12b8 6a3e
000003a0: 2a63 103f f8af bdbe 93f8 d33e 3abe 35bd
000003b0: 0dbf 263f 2326 713d a36b 7cbf 3a09 893e
000003c0: 130d 41bf b205 0dbe d0f5 8b3d dc8c 4c3e
000003d0: 3edf 8d3d 58f8 26be 6f98 e53e 6862 9abd
000003e0: ee6e 8ebe f0c2 3bbf f8a9 47bf 6a99 efbe
000003f0: 14f8 da3d 758b 553e eff3 c0be 28c9 85be
0.38969696 -0.27854082 -0.40756366 0.19514507 0.26594427 0.56107634 -0.5098462 0.14711496
-0.5887324 0.31269887 -0.32174942 0.25332966 0.6316709 -0.109416574 -0.2507391 -0.1645037
0.4386892 -0.017924897 -0.9015366 -1.1118337 -0.3188086 -0.16922358 0.5488405 -0.55834246
0.8164964 0.57196814 -0.24591641 0.2046444 -0.23319943 0.05239547 0.51858646 -0.59260213
0.857617 0.91270214 -0.07107153 0.39072886 0.07680128 0.029765006 0.6230437 0.49499324
0.61803484 -0.13911706 0.6488097 0.7623499 0.1588057 -0.23664789 -0.22045588 0.10523234
0.29949063 0.5462704 0.20339827 -0.4191766 -0.3445163 0.41642466 0.36738148 -0.3200291
-0.09706973 -0.064864084 -0.20735916 0.62341017 -0.24441968 0.08196845 0.4339396 -0.49614704
0.27337497 -0.12662433 -0.16423605 0.31312004 0.25443506 0.4507334 -0.7520757 0.39500144
-0.39396128 -0.022939006 0.31078678 0.03823623 0.064679496 0.04109292 -0.90875417 0.39014387
0.07807062 0.5203755 0.0718083 0.4705664 0.5501144 -0.4284762 0.10912337 -0.13487959
-0.042257205 -0.516825 -0.42603382 -0.29147214 -0.5577025 -0.4675828 0.46995822 0.43861026
-0.02135802 0.2691217 0.100522995 0.67498934 0.6758147 -0.41282526 0.6121662 -0.3055092
0.10270601 0.45965853 0.6326575 0.0384852 -0.18830402 0.4547388 0.24552369 -0.10567918
-0.04258243 -0.20498803 -0.4576676 0.07950838 -0.26938176 -0.5482536 0.48553368 -0.12963535
-0.45294866 -0.39560723 0.2779722 -0.2293909 0.5370964 0.09024004 -0.046290174 0.35351968
-1.2263594 -0.9299076 -0.046972744 0.15631074 0.31709838 0.1435023 -0.7066647 0.061576225
-0.761167 -0.0008937142 0.63811785 0.33166075 0.53171825 -0.27075917 -0.96719354 -0.6387943
-1.1805748 0.31148505 -0.55975103 0.12083255 -0.9600879 -0.48752987 0.39616868 0.008272217
0.5387654 -0.13732316 -0.10620348 0.1869783 -0.9790461 0.017637411 0.25427756 -0.14107734
0.7862562 0.8046449 -0.745194 -0.059443165 -0.32050267 0.40261167 0.16563733 0.08985857
0.5140354 -0.44751543 0.6110944 -0.15337543 -0.4910047 -0.43463284 -0.3785608 0.64480716
-0.20080134 0.7102415 0.8347007 -0.07270552 -0.6709076 -0.016238654 0.08101986 -0.8820406
0.16042851 -0.27062407 0.11317374 -0.059955586 -0.84543145 1.0738472 0.26935637 0.064011484
-0.5060432 -0.5500862 0.24965289 0.5159891 0.15226391 -0.061452147 0.9680864 0.80034035
-0.11607796 -0.0074981996 0.44546017 0.17824581 0.5989014 -0.10343467 0.10131642 -0.55817986
0.20994338 0.113745436 -0.3268628 -0.40906507 -0.22822641 -0.80668855 0.1343689 -0.06108127
0.78763485 0.061116025 -0.11580909 0.12684606 -0.37452266 0.2843469 0.15259703 1.051362
0.86147517 0.4117929 -0.35576743 0.083115384 0.65445316 0.35097763 0.13211013 0.2292178
0.5640131 -0.37048316 0.41400585 -0.044370867 0.6513527 0.05887426 -0.9860174 0.26764852
-0.75410575 -0.13771704 0.068339944 0.19975609 0.06927346 -0.16305673 0.4484286 -0.07538301
-0.27819008 -0.73344326 -0.77993727 -0.46796733 0.106918484 0.2085398 -0.37686107 -0.26130033

lstm.bias_ih_l0 f4 [256]
00000000: edb2 c03e a313 ba3e ca9b e03e c74e d13e
00000010: 8d3b e73e ebaa 113e 813d db3b 1f6f 293e
00000020: aeda 9f3e 4771 103f a30c 823e 3488 f73e
00000030: 4724 c93e b530 1a3f 6cce b63c 0f04 023e
00000040: 73a4 cd3e 8782 ac3d b3ac ec3e 9493 7b3e
00000050: a1f1 d73e 8732 043f e765 843e b038 2e3f
00000060: 84a3 f63e 8622 e13e 8acb 9b3e 8433 6c3e
00000070: b1af 023f 40c3 a13e 0d69 a23e 05c1 8f3e
00000080: 0ada d33e 5a2c 043f 87fe ec3e fe1e eb3e
00000090: 9fa4 263f 4706 1d3f 160d fa3e 7f13 f23e
000000a0: 9059 03bd ef35 b53e 7b5a 433e 6a25 df3e
000000b0: 0809 763e 336e ab3d 545d 943e 9d34 013f
000000c0: c545 013f 0f69 d43e 0b74 e33e ca41 503e
000000d0: e3f7 8b3e 517c 6a3e f025 e23e 656d a83e
000000e0: 6b26 e83e 6b37 db3e 1599 a23e 4c86 593e
000000f0: 347a 873d 0c91 f83e 0e1f a13e a882 e13e
00000100: f7df 883e 8568 763e 2e9c 2fbd 6a4c 14bc
00000110: 7cb8 99bd de59 ee3d 1725 923e 4ca3 5dbd
00000120: 3572 113e f37a 16be 5f8f 87bc 08b4 8c3e
00000130: a18e c43e 8cb9 17be d117 3a3e 9d3b 543e
00000140: 435a fdbd 681d 2fbe 3c60 ae3d 8616 65be
00000150: a6f4 30be af73 06be c517 3a3e cee4 a4be
00000160: 30ab c33e 8407 893e 3dad 96be 1708 323c
00000170: dda0 743c 172e 45be c832 c9be facb 983c
00000180: 6def 0b3e 9f24 533e b044 753e 2eee 8b3e
00000190: 050c e13e 8335 0f3e 1d81 febe 8ac3 bdbe
000001a0: 59f8 383e 63d5 55bd 2d33 e93d 2edb 2b3e
000001b0: 56c1 c43d 1c19 d03e 9a79 1bbe 8477 da3d
000001c0: e6fe 4ebe bb96 12be e442 3a3e a80b a4be
000001d0: 833f 803e df58 b63e 979b 7c3e 6602 58bd
000001e0: b7a2 2cbe 04cf 3fbd 7961 a93e b9ef 5a3e
000001f0: 5f73 253f 496f 70bd 9a88 9dbb 45d2 42be
00000200: 4305 74be 9336 07be 8e1a 813e abd7 4f3e
00000210: 312e 48be b636 043e 4223 7abe f645 323d
00000220: f165 60be 69ae d43c 9128 54bd f4c3 f03c
00000230: fc4b 933e b89c a7bc 30ee a4be c789 bdbd
00000240: a362 dabe 0737 3f3e c1f0 bbbe c33f 663c
00000250: c74a 3cbe 19ac 91be 366c 32bd a500 39be
00000260: 1469 d4bd 9935 d9bd b195 90bd abc2 913e
00000270: b808 453d 456f 3cbd 7b30 48bd 699e 0fbe
00000280: d321 f33d 37a6 c03c 1004 60be 63e1 c0bd
00000290: c18b a53d 4b39 263e 9ae6 d4be 079b d13d
000002a0: bacb 2b3e 496f 233e f5cb b43e d342 62be
000002b0: 0f11 60bd d8b6 5fbd d7d4 2bbd f327 8b3e
000002c0: 96ef 34be 768f a0bd 851b 9f3e 7fa3 803e
000002d0: a3df b1be 705c 3a3e f02e b73e bd82 58be
000002e0: 7544 e03d 112a 03bf 1aff 67be f43a aebc
000002f0: e84b 10bd 0f3d f93e d104 edbd 9736 40be
00000300: b666 d53e ff78 a83e 07a5 183f 0866 ee3e
00000310: 91ab b63e a17a 213f 845e a73e 4030 3d3e
00000320: 6315 1f3f 1a76 bc3e 82c4 6c3e e065 b73e
00000330: 7e20 c53d 74af 2a3f 1542 c63e bfdc 123f
00000340: 60b2 183f f455 2c3f 3db6 a33e adfe f33e
00000350: 8f97 0f3f a3ec 073f 9a84 3e3e 2ebb 333f
00000360: b53a 2d3f 7107 103f 17c9 f53e 58be e03e
00000370: 5c26 1a3f 1698 fc3e 4515 463f f28d 593e
00000380: b03b 9c3e 54a4 843e 11f5 553f 096d 283f
00000390: 6e47 f13e bc12 d33e 828a 093f 0150 033f
000003a0: cfcb ed3e f719 283f 3399 063f 8f65 2e3f
000003b0: f279 743e 92e4 2d3f bc56 1e3f de05 403f
000003c0: 21f8 fc3e 2f01 e73e 48c9 383f 88fc a23e
000003d0: e5ae fb3e bace 073f 4019 a23e c40c 963e
000003e0: 00e7 083f 5c00 a03e d276 aa3e e059 123f
000003f0: 4872 a33e d9ec 983e 6312 f73e 13fe 223f
0.3763651 0.36343107 0.43868858 0.40880415 0.4516262 0.14225356 0.0066906814 0.16546296
0.31221527 0.5642285 0.25400266 0.48346102 0.3928549 0.6023057 0.022315226 0.1269686
0.40164527 0.084233336 0.4622551 0.24568015 0.42176536 0.516396 0.25858995 0.6805525
0.48171628 0.43971652 0.30428725 0.23066527 0.51049334 0.31594276 0.31720772 0.2807695
0.41377288 0.51630175 0.4628794 0.45922083 0.6509494 0.61337703 0.4883811 0.472805
-0.032067835 0.3539271 0.19077484 0.43583232 0.24026883 0.08370628 0.28977454 0.50470906
0.50497085 0.41486403 0.4442447 0.20337597 0.2733756 0.22898985 0.4416957 0.3289596
0.4534181 0.42815718 0.31757417 0.21242636 0.06615105 0.48548162 0.31469005 0.44044995
0.26733372 0.24063309 -0.042873554 -0.009051422 -0.07505891 0.116382346 0.28543922 -0.05411081
0.14203723 -0.14695339 -0.016547857 0.27481103 0.38390067 -0.14816874 0.18173148 0.20725866
-0.12370732 -0.17101061 0.08514449 -0.22371873 -0.17280826 -0.13130067 0.1817313 -0.32205814
0.38216543 0.26763546 -0.29429045 0.010866187 0.014930931 -0.19255863 -0.39296556 0.018651951
0.13665552 0.20619439 0.23951983 0.27330154 0.43954483 0.13985257 -0.4970788 -0.37063247
0.18063487 -0.052205455 0.11386714 0.16782829 0.096071884 0.40644157 -0.15183106 0.10667327
-0.20214424 -0.14315312 0.18189579 -0.32040143 0.25048456 0.35614678 0.24668728 -0.052736662
-0.16858946 -0.046828285 0.33082178 0.2138051 0.6462917 -0.05869988 -0.004807544 -0.19025524
-0.23830132 -0.13204412 0.25215572 0.20297115 -0.1954887 0.12911496 -0.24427512 0.04352375
-0.21913888 0.025962071 -0.0517965 0.029390313 0.2876891 -0.020460472 -0.32212973 -0.092547946
-0.4265338 0.18673335 -0.36707118 0.014053288 -0.183879 -0.28451613 -0.04356023 -0.18066652
-0.103716046 -0.10605926 -0.07059801 0.28468832 0.048104018 -0.046004552 -0.04887436 -0.14025272
0.11871686 0.023516757 -0.2187655 -0.09417989 0.080832966 0.16232793 -0.41582185 0.10234647
0.16776934 0.1596042 0.35311857 -0.22095804 -0.05470377 -0.054617733 -0.041951027 0.27178916
-0.1766952 -0.07839863 0.31075683 0.25124738 -0.34740934 0.18199325 0.35777998 -0.21143623
0.10950557 -0.51236063 -0.22655907 -0.021268345 -0.03522864 0.48679397 -0.11573184 -0.18770824
0.41679925 0.32904813 0.5962681 0.4656222 0.3567777 0.6307774 0.32689297 0.18475437
0.6214201 0.36808854 0.23121837 0.35819912 0.09625338 0.6667397 0.38722292 0.5736808
0.5964718 0.67318654 0.31974974 0.4765524 0.56090635 0.53095454 0.18605271 0.7020749
0.67667705 0.56261355 0.48004982 0.4389522 0.6021478 0.49334782 0.77376205 0.21245554
0.30514288 0.25906622 0.83577067 0.65791374 0.4712481 0.4122523 0.5372697 0.5129395
0.46444556 0.6566462 0.52577513 0.68123716 0.23874643 0.67926896 0.61851096 0.7500895
0.49408057 0.4511809 0.7218213 0.3183329 0.4915687 0.53049815 0.3165989 0.29306614
0.5347748 0.31250274 0.33293778 0.5716839 0.31923127 0.298682 0.48256215 0.63668936

lstm.bias_hh_l0 f4 [256]
00000000: a47d 3b3e 6c31 bc3e dcfa dd3e 58fb 0f3f
00000010: 0e45 fb3e ea1c 843b 8968 243e 631c 143e
00000020: 955a ab3e 5347 1b3f 863d bd3e d2ee 053f
00000030: 43df 9a3e 51f4 d93e 8bb2 963d 839b 473e
00000040: 9c93 b93e 9794 5a3e dd07 b33e 4b10 df3e
00000050: db11 e73e ef78 043f 5ad6 493e f2bc 123f
00000060: c9ab 073f fde7 dd3e fd7b b43e 1228 ad3e
00000070: c2a3 a53e e481 9f3e c3a9 e43e e948 cf3e
00000080: 52ec 113f 6255 ee3e c757 303f 870c e63e
00000090: cca1 1a3f 2942 0d3f 5ef6 dc3e 9f39 ec3e
000000a0: 1eea a13a ca93 073f b74c 653e bf2a c13e
000000b0: 6125 513e 1312 90bd 0011 b93e 8647 cb3e
000000c0: 2aca a63e 1a6f 0f3f 062d 7c3e 7e51 103e
000000d0: c1de c43e 4f67 883e 3a35 bf3e 3bc7 d13e
000000e0: 8710 0a3f af2e 993e dc63 ce3e 2784 ac3e
000000f0: 22e7 a63c 1f05 d63e 365c a33e b3cd a93e
00000100: 02a4 243e 7881 c53e 2b94 91bd 1ac9 943b
00000110: 7570 10be bc99 5e3e 2051 703e bc51 ad3d
00000120: a0ea 0b3e 7804 31be f34c 27bd a2ed 9d3e
00000130: 222e b63e f275 11bd 56cf 6b3e a1cd 203e
00000140: c7dc 2ebd b6cd 57be 9295 a93d 0dca a4be
00000150: 24e8 6bbe 3db4 17be 6bf2 123e f9a3 21be
00000160: d5ef d63e 41fe 653e 3a0f 6cbe beca 3c3d
00000170: 41bb e63d 079c 22bd 34fe e1be 5c60 c13d
00000180: 272b 083e d366 903e 78b3 e73d b6e9 7e3e
00000190: 5af8 8a3e ced5 993e ef73 9dbe c039 c4be
000001a0: 66b9 4e3e f0c4 0b3d 0dc1 ef3d 0ac7 a43e
000001b0: 90ca 353e 83bf 963e 13f4 84bd 0efe 42bb
000001c0: 11a7 84be bb4c 7cbd c2ae 6c3d 81f0 90be
000001d0: f5c5 a13d e4f9 573e f357 703e 7906 a1bd
000001e0: 2d34 9ebd f948 d0bb fe60 113e cfb0 9c3e
000001f0: 289a 3b3f d36b 21bd 0551 883d cedd 8fbe
00000200: 3918 8dbe 5360 2fbe a824 4d3d 612e e93d
00000210: e6ce 33be ff42 fb3d 97da 4dbd 12af a83d
00000220: fcd5 90bd 7bab 3c3e c55e 163e 1e99 043d
00000230: fda6 ad3e 1141 b5bd 0f45 8cbe eea9 18bd
00000240: 98d3 b9be 4d51 983e de0b aebe 8f13 09bd
00000250: 44b9 68bd 49d7 36be 451a 103e 6894 05be
00000260: b820 eb3c 7d55 efbd 08dc b13d 558c ad3e
00000270: 28aa a3bd 5a8f 3ebe c0a4 debd 500d 4fbe
00000280: c3ef 7bbd de73 e23d 20de 63be 4e14 a7bd
00000290: 0196 883e 9ead 103e ccee 7fbe be90 0d3c
000002a0: b5eb 4a3e 7dcf 243e ebc9 d33e 99cd 05be
000002b0: 0df3 0f3e e2e3 09be 89ee 353d 82ed 983e
000002c0: 3bad 10be ffb4 793d ef37 a53e 5e0a 453e
000002d0: 2173 b6be 8d1b 723e 092b ab3e 38a8 acbe
000002e0: e23e ae3d 627a cebe eb0e 70be 34d7 edbd
000002f0: f678 2abe 2849 da3e 5cb6 bebc af75 5bbe
00000300: bfb2 cb3e 9579 b13e 5e6e 133f a628 d93e
00000310: fe07 df3e 10d1 013f 665f d33e d90f a43e
00000320: f9dc 213f 3415 b13e 4f51 b13e 33ce f43e
00000330: 8191 763e 7c1d 3a3f 0c8f 183f c749 0b3f
00000340: 7475 093f 1752 183f 44a7 963e cdb1 ce3e
00000350: 03ff 223f b0cc 133f d585 683e 0f92 263f
00000360: fee1 013f 254b e83e 4c84 1c3f 716b d93e
00000370: 80eb 0a3f 1ac7 263f 3a88 2c3f 4c91 d43e
00000380: 3f26 a33e 7bd5 d73e 05c0 3f3f a8ee 1c3f
00000390: d363 ba3e be15 f33e 8a12 ef3e e7f5 283f
000003a0: 4086 0b3f c9f3 053f 42c1 243f c591 043f
000003b0: 3b19 3a3e 5543 273f d7ed 213f 9f17 3b3f
000003c0: 54ee d93e 7c83 923e b623 203f 509d c43e
000003d0: ed8f 093f 31d5 df3e 1cc7 4b3e c5db e83e
000003e0: 191f f13e adcd fd3e 51c7 d63e 4f84 3e3f
000003f0: 813b 813e a5cf 833e d7a8 ba3e 5047 193f
0.18309647 0.36756456 0.43355453 0.56242895 0.49076122 0.004031767 0.16055502 0.14463954
0.33467546 0.6065571 0.36961 0.52317536 0.3024846 0.4256921 0.07358273 0.19492917
0.3624543 0.21345745 0.34966937 0.43567118 0.4513081 0.5174703 0.19710675 0.5731956
0.529965 0.43341056 0.35250846 0.33819634 0.323515 0.31153786 0.44660768 0.40485314
0.5700122 0.46549517 0.6888394 0.44931433 0.6040313 0.5517908 0.43156713 0.4613771
0.0012353098 0.52959883 0.22392546 0.37727925 0.20424415 -0.070346974 0.36145782 0.39703006
0.32576114 0.560289 0.2462655 0.14093587 0.38451198 0.26641318 0.37345296 0.40972313
0.5393147 0.2991843 0.40310562 0.33694574 0.020373885 0.41800782 0.3190629 0.3316475
0.16078189 0.3857534 -0.07108339 0.0045405747 -0.14105399 0.21738333 0.23468447 0.08462855
0.13663721 -0.17286861 -0.04084487 0.30845362 0.35582072 -0.035512872 0.23028311 0.15703441
-0.04269102 -0.21074566 0.082804814 -0.32185403 -0.23037773 -0.14814849 0.14350288 -0.15785207
0.41979852 0.22460271 -0.23052683 0.046091788 0.112661846 -0.03969958 -0.44139254 0.09442207
0.13297711 0.2820345 0.11313528 0.24893841 0.27142602 0.30045933 -0.30752513 -0.3832531
0.20187911 0.03412336 0.117067434 0.32183105 0.17753053 0.29442987 -0.06491866 -0.002975348
-0.25908712 -0.061596613 0.05778385 -0.2830849 0.078990854 0.2109142 0.2347105 -0.07862563
-0.077247955 -0.0063563553 0.14197156 0.30603644 0.732821 -0.03940947 0.06656078 -0.2809891
-0.27557543 -0.17126589 0.050083786 0.11385799 -0.17559394 0.12268638 -0.05025729 0.08236517
-0.07072064 0.1842479 0.14684589 0.032372586 0.33916464 -0.08850301 -0.27396438 -0.037271433
-0.36294246 0.29749528 -0.3399343 -0.03346592 -0.056817308 -0.17855562 0.14072521 -0.13044894
0.028702125 -0.116862275 0.08684546 0.33896127 -0.07991439 -0.18609372 -0.10871267 -0.20219922
-0.06150795 0.11057256 -0.22252703 -0.0815817 0.26676944 0.1412873 -0.24993438 0.008640466
0.19816478 0.16094775 0.4136499 -0.1306671 0.1405756 -0.13465837 0.044416938 0.29868704
-0.14128582 0.060963627 0.32269236 0.19242236 -0.3563471 0.23643322 0.3343127 -0.3372209
0.08508088 -0.40327746 -0.23443191 -0.11613312 -0.16647705 0.4263394 -0.023280315 -0.21431611
0.3978481 0.34663072 0.5759028 0.42413825 0.43560785 0.5070963 0.4128372 0.3204334
0.632278 0.3458649 0.34632346 0.47813568 0.24078943 0.7270124 0.5959327 0.5440945
0.53694844 0.5950026 0.2942449 0.40370026 0.63670367 0.57734203 0.22707303 0.6506662
0.5073546 0.4536983 0.6113937 0.42464784 0.54265594 0.65147555 0.67395365 0.41517103
0.31865117 0.4215506 0.74902374 0.6130166 0.36404285 0.47477525 0.46693832 0.6600022
0.54501724 0.5232511 0.6435739 0.51784927 0.18173687 0.65337116 0.6325354 0.7308292
0.42564642 0.2861594 0.6255449 0.3840127 0.5373524 0.4371734 0.19900173 0.4548017
0.47094038 0.4957098 0.4194894 0.74420637 0.2524071 0.25744358 0.3645694 0.5987444

action_head.weight f4 [86, 243]
00000000: 03e4 ce3c fbe4 263d 7e85 21bd a7e1 81bd
00000010: 8454 85bd c8a6 623c ecd1 863c ce57 d4bc
00000020: d9f9 12bd ba83 8abc b821 81bb 3a0a 32bd
00000030: d896 a73c 586b 803c cd0e 44bc 86c3 133d
00000040: c6f5 133c f879 fdbc 5f8b 3c3c 204b 02bd
00000050: d6f2 353d 0e79 5a3d 03a4 84bd b0ab 3f3d
00000060: b61f 453d f07b a43b 8f46 80bd 12f6 453d
00000070: 1471 483d 7775 0fbd 4386 243d 8926 7fbd
00000080: 9efe 4dbd 9ab4 403d c01c b8bb 111f a2bc
00000090: eced ab3c 5a11 613d 9246 7d3d 80f9 473d
000000a0: 3c31 083d 90ad 12bb 1e54 5a3b b324 2a3d
000000b0: 7c0b 223d c0f1 113c 76a4 e9bc 6d4c 00bd
000000c0: 5336 c9bb f02f d9be d059 89bd 0916 cebd
000000d0: 2898 08be bc83 4bbe d3fc 4fbe d3ee 3abe
000000e0: 12a6 3abe cdee 3abe 9356 78be 3ff0 2fbe
000000f0: df59 69be ff27 ecbd 7379 54be 869b 7ebe
00000100: 7cd8 69be ccaa 20be 784c 4cbe c591 11be
00000110: c8ab 45be bfb3 08be a027 f4bd 6fd9 f9bd
00000120: 9483 2ebe 7fe1 e6bd 9c91 ffbd f31f 25be
00000130: 961b 2ebe 4e15 8dbd 0729 47be 4fda 37be
00000140: 14ff 86be 8c33 42be b634 6abe d7a9 7bbe
00000150: 1517 d3bd 8e1b dfbd 49c4 57be 147a 69be
00000160: 50e7 90be 4b11 53be 2dcd 49be f792 b6bd
00000170: 2a3c 35bd 1ddf 09be 9d3b 39be 37d0 17be
00000180: efbd bbbd 39f6 01be 4138 60be 186c 7dbe
00000190: 66ac 2ebe d317 55be e0c3 6fbe 4333 1ebe
000001a0: 7d29 43be 81e6 adbe 3333 67be 64e6 76be
000001b0: 0a26 8cbe 1791 31be 6734 4cbe 3bce 84be
000001c0: 9c0e 62be 2b3a 81be 7469 8bbe 86b3 95be
000001d0: bfe2 8bbe b7d7 51be fc74 58be 30bb 7cbe
000001e0: f973 80be 97cc 80be 64e4 6dbe 803f 69be
000001f0: b64e 4fbe 09f4 70be 2fe3 33be e05c 5cbe
00000200: 1cd0 34be ea03 43be e6d8 febd a7d0 3ebe
00000210: d188 48be 97f6 47be c834 0cbe d6d7 49be
00000220: e298 36be 23b1 24be 5d62 64be 201d 5dbe
00000230: e726 8fbe c5c8 3cbe 9975 02be 1363 6abe
00000240: 629a d0bd 6c03 41be dad0 81be 7022 923e
00000250: 6ec6 eb3e 3339 bcbd ed23 86be 85d3 9f3b
00000260: b2a0 973d e210 9a3e 3c4c d7be 5409 853e
00000270: dae7 11bd e18e dfbe 9536 9dbd a423 0bbf
00000280: 3c46 35be e03e cb3e f57a e03e bfd7 153f
00000290: 305e b6be b95b 383f 84ca 6b3f cfc7 f63e
000002a0: 8a15 933e cc5c 93be fe69 d93e 3f14 b6be
000002b0: b7af ae3d 6698 1ebd 7ae2 adbe 360b 453e
000002c0: aa21 863e 552c 5fbe 2513 093f aed8 cebe
000002d0: 1bc0 253e ae09 8e3f f700 54be 7a61 4cbf
000002e0: 58c3 7ebe 0ca3 af3e d99b 38bf 97fd e3be
000002f0: 3842 823d b4a7 f5be a84f 473e 5a71 19be
00000300: 5f6e 5b3e 8599 873e df62 ecbe 178e bd3e
00000310: 39bf 7a3d 12e9 99be f6ac f5bd 90b4 e73e
00000320: f7ef 7fbe 60f3 e0be 014b d73e 2eff f2bc
00000330: 92c0 853f 1a14 993e 602f ffbd 6509 3d3e
00000340: d729 d7be 5ec7 a43e b2af 4b3e 1596 41bd
00000350: a8ff 97bd 4204 2ebd 1eda 45bd 28cc 12bc
00000360: 74bc 1cbd 42a8 593d 2371 56be 8595 443e
00000370: 75d3 1cbc 4e16 c63d a7be 43bd f129 493c
00000380: 5fb2 14be 56eb c13d 2f2e 603e 3728 e03d
00000390: f947 c63d f6ab 81be 0627 043e b1a6 a4bd
000003a0: 7fc9 a5bd 27df 19be d8cb 1abe 90aa 0ebc
000003b0: b2a3 15be 0946 163e 24ad d9bd 3ff6 123e
000003c0: b9f5 423e 49d6 1d3e 66a8 183e 2dc5 f7ba
000003d0: 1453 f83c c764 74bd b50a 71bd 342b 43bc
000003e0: 6078 4abd 3be7 453d 2196 5e3c 23e8 2ebd
000003f0: 3423 923c 4a2c 3f3d 76bd 713d c758 013c
0.025255209 0.040745717 -0.03943395 -0.06341868 -0.06510261 0.013833709 0.01645752 -0.025920775
-0.035882805 -0.016908515 -0.003940787 -0.043466784 0.02045767 0.015676185 -0.011966419 0.036075138
0.009030765 -0.030941948 0.011507838 -0.031809926 0.04442104 0.053338103 -0.06476595 0.046794593
0.048125945 0.0050196573 -0.06263458 0.048330374 0.048935965 -0.035024133 0.040167104 -0.06229261
-0.05029165 0.047047235 -0.0056186616 -0.019790204 0.020987473 0.05494819 0.06183488 0.048821926
0.03325008 -0.0022381283 0.0033314298 0.041538905 0.039561734 0.008907735 -0.028520804 -0.031322885
-0.006140509 -0.42419386 -0.067065835 -0.100627966 -0.13339293 -0.19874471 -0.20311289 -0.18255167
-0.18227413 -0.18255158 -0.24251775 -0.1718149 -0.2278819 -0.11531066 -0.20749454 -0.24864015
-0.22836488 -0.15690154 -0.19951046 -0.14215763 -0.1930381 -0.13349818 -0.1192162 -0.12199675
-0.1704238 -0.11273479 -0.12478945 -0.16125469 -0.1700271 -0.06888829 -0.19449244 -0.17954372
-0.26366484 -0.18964976 -0.2287167 -0.24576508 -0.10307137 -0.108939275 -0.2107097 -0.22800475
-0.28301477 -0.20612065 -0.19707175 -0.0891475 -0.04424683 -0.13464017 -0.18089147 -0.14825521
-0.09167086 -0.12691583 -0.21896459 -0.24748266 -0.17057952 -0.2080987 -0.23414564 -0.15449242
-0.19058795 -0.33964923 -0.22578125 -0.24111325 -0.27372772 -0.17340504 -0.19941865 -0.2593859
-0.22075886 -0.2523969 -0.27228892 -0.29238528 -0.2732143 -0.20492445 -0.21138376 -0.24680781
-0.2508848 -0.2515609 -0.23231655 -0.2277813 -0.2024487 -0.23530592 -0.17567132 -0.21519804
-0.17657512 -0.19044462 -0.12443714 -0.18634282 -0.19583441 -0.1952766 -0.1369201 -0.19711241
-0.17831758 -0.16083197 -0.22303148 -0.21593142 -0.27959368 -0.18435962 -0.12740172 -0.22889356
-0.10185696 -0.18848962 -0.25354654 0.285419 0.46049827 -0.091905974 -0.26199284 0.00487751
0.07403697 0.30091006 -0.4205035 0.2598368 -0.0356215 -0.43663695 -0.07676426 -0.5435126
-0.17702574 0.39696407 0.4384381 0.5853233 -0.35618734 0.7201496 0.9210589 0.48199317
0.2872737 -0.28781736 0.42463678 -0.35562322 0.08529609 -0.038719557 -0.3396185 0.19242558
0.2619756 -0.21794255 0.5354484 -0.40399688 0.16186564 1.1096704 -0.20703493 -0.7983624
-0.24879205 0.34304082 -0.72112805 -0.4452941 0.063602865 -0.4797951 0.1946398 -0.14984646
0.21428822 0.26484314 -0.46169183 0.37022468 0.06121752 -0.3006063 -0.1199588 0.45254946
-0.24993883 -0.4393568 0.4204941 -0.029662695 1.0449393 0.2989815 -0.12460208 0.18460615
-0.4202411 0.32183355 0.19891241 -0.04726227 -0.074218094 -0.04248453 -0.048303716 -0.008959807
-0.03826566 0.05313898 -0.20941596 0.19197662 -0.0095719 0.09672223 -0.047789242 0.012278066
-0.14521168 0.09468715 0.21892618 0.109451704 0.096816964 -0.25326508 0.12905511 -0.08039606
-0.08095073 -0.15026532 -0.15116823 -0.008707657 -0.14613226 0.14675154 -0.10628727 0.14351748
0.19039048 0.15413775 0.14907989 -0.0018903367 0.030313052 -0.05966642 -0.0588481 -0.011912156
-0.049431205 0.04831622 0.013585598 -0.04270185 0.017839052 0.046673097 0.059018575 0.007894701

action_head.bias f4 [86]
00000000: 521e a2be 19db d9be c9a7 abbf 53ad 9ebe
00000010: c30f 58be 4349 9fbe 05de 30be 49b5 14be
00000020: ac23 f0be 6af1 e1bd 67df 1f3d bc8c d9bd
00000030: 9e69 f0bd 387a e9bf de3c 3d3b ae3a 013d
00000040: 6854 013e a472 fc3e 7cfb b6bd 5484 bcbd
00000050: 2e41 d7bc 293b a5be 373f 09be dad5 bbbe
00000060: d2f4 f7bd 29d1 9dbd ef62 3d3f 29b3 953c
00000070: 6094 ddbd a2a5 d3bd c3ca 96bd 38b7 50be
00000080: 82e8 8dbf 28b4 42bf d46e 05be 636f c5bf
00000090: 9d34 ca3b 2112 82be 0691 203d e272 4abe
000000a0: 33a6 c0be 48e8 5bbe ca8d a73c 950f 8f3e
000000b0: 5ba0 d3be 505c b5be ce21 393e 34e4 d93d
000000c0: 405a 79be e886 5bbe bdcd bbbf ccf4 b0bd
000000d0: e3dc 003d f387 013e 3429 c63d bb73 febc
000000e0: d275 18bf 6090 c1bc 95fd 91bd 3131 22bd
000000f0: 8565 bf3d eb53 1cbf 9574 98be c59c ccbd
00000100: 6521 0abc 1085 903d b3e5 f03c c08c aec0
00000110: 6d55 3bbe ed97 9c3d aaea 44c0 2c69 83bd
00000120: 6687 b23d 77ee 143d f631 33bd 5089 49be
00000130: 6530 6d3e 1482 fe3c 3f76 313e 5a91 863e
00000140: da13 62bd c4b1 893d 71c7 b23c 7c6b 0cc0
00000150: 7bf1 423d fde3 50be
-0.31663758 -0.4254997 -1.3410579 -0.3099161 -0.21099763 -0.31110582 -0.17272194 -0.1452228
-0.46902215 -0.11032374 0.039031412 -0.10622546 -0.11738895 -1.8240423 0.002887539 0.031550102
0.12629855 0.49306214 -0.089346856 -0.09204927 -0.026276197 -0.32271698 -0.13403021 -0.36686593
-0.12107243 -0.0770591 0.73979086 0.018273907 -0.10819316 -0.10334326 -0.073628925 -0.20382392
-1.1086581 -0.76056147 -0.13030559 -1.5424618 0.006170823 -0.25404456 0.039200805 -0.19770387
-0.376268 -0.21475327 0.020453352 0.27941576 -0.4133328 -0.3542199 0.18079302 0.106392294
-0.24350834 -0.21438181 -1.4672161 -0.08640441 0.031460654 0.12649517 0.096758276 -0.031061044
-0.5955478 -0.023628414 -0.07128445 -0.039597694 0.09345535 -0.6106555 -0.29776445 -0.09990839
-0.008430813 0.0705663 0.029406404 -5.4546814 -0.18294306 0.07646165 -3.0768228 -0.06416544
0.087172315 0.03636023 -0.04374882 -0.19681287 0.23162992 0.031067885 0.17330264 0.2628277
-0.055194713 0.06723359 0.021823617 -2.1940603 0.047593575 -0.2039947

answer_embedding.weight f4 [32, 32]
00000000: 7726 273f adf4 2740 11f4 683e ce5d 713f
00000010: dc9c fc3c 1268 1d40 fc1f 57bf 4a49 c73f
00000020: a3e6 04bf fd28 633e 7978 38bf 43f9 323f
00000030: fcd9 cbbf 9149 21bf 0487 083e fe0a c8be
00000040: e5b5 953f 3d04 ccbf 7599 1b3f adb6 d13e
00000050: 6a6a e8be 99d6 dcbf 2be7 3f3f 3206 2dc0
00000060: e21b 2140 547f 623d 0259 0dbe 9b91 8a3e
00000070: ec01 b73f 7ee8 10be d632 ed3d c047 e93f
00000080: c92b 5a3d 7fff 563f 0295 2940 e8bd 0f3f
00000090: a5c4 243f c5da b3bf 52c1 b53f 92bc 6cbe
000000a0: 0368 d13f 1377 663f 9f68 8b3e 5703 883f
000000b0: b18f b9bf 065a c5bf ad74 2abf 808b 1abf
000000c0: 17f9 53c0 c726 c6be 8dca 5e3f c774 55bf
000000d0: ea83 dabd caab aabf a0b3 ce3e bf8b 0b3f
000000e0: 4dcb 053f 944a 40bf 5e78 963f 0493 873d
000000f0: 2007 1f3f 00f7 0a3f 17f6 da3d 1f46 0cbf
00000100: 554f 843d f20f 9ebe e502 133e 705f 17c0
00000110: 374d 843f e1cc 3dbf 1489 0d3e 0af9 a5bf
00000120: aab3 c13f 3135 0b40 e4e0 0fbf 18a6 4cbd
00000130: 41c7 46be 8874 8abe 8af0 1340 b90f cabe
00000140: 09d1 a0be 4940 233f 7c51 82bf 2761 1abd
00000150: 2ca4 ca3f 94de afbe 23d0 d6be e4a1 9dbc
00000160: d9b7 1cbf c74b 1dc0 7fee b1bf 3b6c 293d
00000170: b479 203e 44c0 3c3f 782f 0cc0 cc1a c93f
00000180: f10d 933e 3d0a 0ebe 5267 393c 8423 c13e
00000190: 1540 593e 6d69 d6be 5e8d e6bd ab08 5a3f
000001a0: a4a9 7cbf 11ec 18be abc5 71bf fe28 a13e
000001b0: 8876 6c3f 1221 433f 4c00 3cbf 63c5 c6bd
000001c0: c383 3e3f 7278 b7bf 6916 7bbf 5887 62bf
000001d0: f9d8 9f3e 788f f53e 91af 49bf 018f 183e
000001e0: 6c93 a8bd 05a5 6cbe db35 15bf e3ac 9c3f
000001f0: e7e0 823f b4b1 c23f 33fc 74bf 41a5 71be
00000200: 3858 4bbf 79d7 b83f 4ab8 533d 3596 4a3f
00000210: 126d c93c 61d8 4a3f b726 983f 1947 093f
00000220: 4b5e 13bd e201 493f 5d24 763f b191 dc3d
00000230: ceb3 d5bf efda e63f 340f 413f afaf ae3e
00000240: 8cab b73c ee35 703f 979e 463f 7523 e53f
00000250: df5c 273e 41db 463f 32bf 1e3f bc42 3a3f
00000260: 42d2 b8be d0de f5bd e731 0e3c c1de 0c3f
00000270: 4e6e c7be 9234 99bf 30ee 8f3e 3f72 40bf
00000280: f49c 95bf 3c12 083f 0204 c33e 1770 52bf
00000290: 1980 283f 0b10 e0be 913e bd3f efc1 563f
000002a0: daeb 0dbf e870 1a3e eb4b 4dbe 115e a1be
000002b0: 396a ebbe 93fd 0e3f c978 233f 4b1c 413e
000002c0: 185b 15be b667 73be add2 1c3f ab84 8a3f
000002d0: 6807 c93f bdfc 533f 3bd6 2fbf 43cb 513f
000002e0: 0dac 653f 7fd4 91be 15c3 76bf a425 8d3e
000002f0: 5d93 97be 31ec 18bf 5e39 cebd 485e 0ebe
00000300: cf6f 69c0 4050 813f a21c 2c3f 3067 fabf
00000310: 3b5f 8040 e426 54c0 3bb6 b0bf 8406 543f
00000320: 122d 53be 1095 0140 495e 2340 12e0 49bf
00000330: 0b5f 9a3d c088 91bf 7cee 03bf b637 e23f
00000340: 0508 0cc0 fdf7 863f de7f 3d3e 9b26 a7bf
00000350: f053 853f a71e 8e40 cfb3 c3bf 57b9 b9be
00000360: 8fe5 80bf f3ac 71c0 eb66 4740 d9f9 a63f
00000370: 1b29 8f3f 52ca 32c0 5727 5e3f 7086 bcbf
00000380: c3c5 463f df15 c3be e24b acbc 12bf cabf
00000390: 694f 823e 80eb 303f 6ce9 153f f4d5 473f
000003a0: 246b 5b3d 121d 883d de8f 8c3e c5dc 24bf
000003b0: d103 a2bf 018d 3ebc d689 373f 835b 46be
000003c0: dcf7 10bf 20e2 543f 17c0 803f d182 d93c
000003d0: 2e9d 473f fa61 dd3f ca5e 0dbf 4426 c2be
000003e0: 7c43 313f 231d 45bf 4462 dbbe 8c4d 283f
000003f0: 65d9 343c 2b66 b4bf d189 cabe bbe2 163f
0.6529307 2.6243088 0.22749354 0.9428376 0.030836515 2.459477 -0.8403318 1.5569241
-0.51914424 0.22183605 -0.72058827 0.69911593 -1.5925899 -0.6300288 0.13332754 -0.39070886
1.1696135 -1.5938793 0.6078103 0.40959683 -0.45393687 -1.725299 0.7496211 -2.7035031
2.5173268 0.05529721 -0.13803485 0.27064213 1.4297462 -0.14151189 0.11581962 1.8225021
0.053264413 0.83983606 2.6497197 0.5614915 0.64362556 -1.4051138 1.4199622 -0.23118809
1.6359867 0.9002544 0.27228257 1.0626019 -1.4496976 -1.5418098 -0.66584283 -0.6036911
-3.3120782 -0.3870146 0.8702782 -0.83381313 -0.10669692 -1.3333676 0.40371418 0.5451011
0.5226334 -0.751138 1.1755483 0.06619838 0.62120247 0.5428314 0.10691469 -0.54794496
0.06460444 -0.3087154 0.14356573 -2.3652 1.0336064 -0.74140745 0.13821822 -1.2966626
1.5132954 2.1751215 -0.5620253 -0.049963087 -0.19411947 -0.2704203 2.3115563 -0.3946512
-0.3140948 0.63769966 -1.0181117 -0.037690308 1.5831351 -0.343495 -0.4195567 -0.019242235
-0.6121803 -2.45775 -1.3900908 0.041362982 0.15671426 0.73730874 -2.1903973 1.5711303
0.28721574 -0.13871093 0.011316137 0.3772241 0.21215852 -0.41877308 -0.112574324 0.85169476
-0.9869635 -0.14933802 -0.9444224 0.31476587 0.92368364 0.76222336 -0.73437953 -0.09705617
0.744198 -1.4333632 -0.9808107 -0.8848777 0.31220224 0.4796102 -0.7878352 0.14898302
-0.082312435 -0.23109825 -0.582853 1.2240261 1.0224885 1.5210481 -0.95697325 -0.23598196
-0.79431486 1.4440757 0.051689424 0.7913545 0.024588142 0.7923642 1.1886815 0.5362411
-0.035978597 0.785185 0.96149236 0.10769976 -1.6695497 1.8035563 0.75413823 0.3411841
0.022420667 0.9383229 0.7758574 1.7901446 0.16344021 0.77678305 0.6201049 0.7275808
-0.36097914 -0.12005389 0.00867889 0.55027395 -0.38951343 -1.1969168 0.2811141 -0.75174326
-1.1688523 0.53152823 0.38088995 -0.82202286 0.6582046 -0.4376224 1.4784719 0.8388967
-0.55438006 0.15082133 -0.20048492 -0.3151708 -0.4597948 0.55855674 0.6385618 0.18858449
-0.14585531 -0.23770031 0.61258966 1.0821737 1.5705385 0.82807523 -0.68686265 0.8195078
0.89715654 -0.28482434 -0.9639142 0.2756778 -0.29604617 -0.597354 -0.10069536 -0.13903153
-3.6474493 1.0102615 0.6723119 -1.956274 4.011625 -3.3148737 -1.3805612 0.8282244
-0.20622662 2.024723 2.5526297 -0.7885753 0.07537659 -1.1369858 -0.51535773 1.7673252
-2.1879895 1.054443 0.18505809 -1.3058656 1.0416241 4.4412417 -1.5289248 -0.36274216
-1.0070056 -3.776181 3.1156566 1.3044997 1.1184419 -2.7935987 0.8677878 -1.4728527
0.7764551 -0.38102624 -0.021032277 -1.583956 0.2545121 0.69109344 0.585593 0.7806084
0.053568974 0.0664617 0.27453512 -0.6439937 -1.2657415 -0.011630298 0.71694696 -0.19370846
-0.56628203 0.8315754 1.0058621 0.026551636 0.7797421 1.7295525 -0.5522276 -0.3791982
0.692436 -0.76997584 -0.42848408 0.6574333 0.011038159 -1.4093679 -0.3955827 0.58939713
